exp/original_exp/MELD_stoi_gmm/best_va_result.pt (torch, 57836 bytes, 22 tensors)

weight f4 [16, 512]
00000000: b91f a83d c959 24be 4a7d ecbd 8018 c03d
00000010: 48e1 8bbc bd4f 883d a8aa 5abe 36c8 c1bb
00000020: 4b89 7f3d d922 de3d 952a 2bbd b8ba 28be
00000030: d13b 1f3d 5c9e c6bd 728a ecbc 2247 cf3e
00000040: 494c 09bd 076e eebd 9404 573e 1b4e e9bd
00000050: 6d85 dcbc 9ef4 1bbe 5d12 933c b70d 39bd
00000060: 747f 9c3e a215 373d 2c29 843d 5b56 873e
00000070: 2d20 a4be 769a 113e 3f2b 913e 6fdb 093d
00000080: db99 183e b3c3 bdbc 078b d5be 7849 15be
00000090: b87f e13c a46f 17be f06d b9be b4d9 4f3e
000000a0: 52a0 09be 67a5 8f3d a1f4 1ebe 324e 56bd
000000b0: 1438 503d 8b1b 37be 7724 863d a5f4 6d3b
000000c0: b9b7 de3d 1d66 10be 61a1 25be 692e 1f3d
000000d0: 649e 9bbd d640 8e3e e648 943e bec9 313e
000000e0: 63a1 803e 02fc f0bd b562 9c3d 938d b13d
000000f0: 239a 39bb 1e9b 9a3d 013f 0b3e 8dad 413a
00000100: a88b f23d 1cb2 47be 9bed 9fbc 8a55 003e
00000110: 89e5 863d c351 e5be e115 f2bd 6492 be3e
00000120: 3eca 383d e8a9 bf3c 8c8a fdbd 0821 2a3c
00000130: 49b0 38bb 1b93 97be 8193 22bf 108a 433e
00000140: 798b 093e 9b32 143e de22 48be 072e 0dbe
00000150: 1563 86bd 560e b4bc 0923 283e 07df c83e
00000160: 6e0f 433d f495 41be daf7 cabc 1c8c 8b3e
00000170: fd49 2a3e 00ea 93bd 4f75 fb3d bb23 4cbe
00000180: adbb 8fbe bf9d a6bd 985e e33d dd86 51bd
00000190: 4933 debc 4ed1 ddbc c4fd aebc 56a0 a43d
000001a0: 74ac 6e3d b597 013d 6e35 a23e 8b1a 11be
000001b0: 8e97 52be 533b 133e 85b7 10be 20e8 0f3e
000001c0: 65a4 453e 21ae e73c 0082 23be 7da4 8a3d
000001d0: 38fb 3ebf b5dd 15bd 1ca1 3c3d f7e8 50be
000001e0: 8e73 fe3b 3842 7f3e 1a0b e33d 2dbd cabd
000001f0: 55c8 3cbe d721 053d ada6 6fbd 9e05 4abd
00000200: 85c7 0c3e 739d 7fbc 97b8 413d fcf0 b6be
00000210: e409 0e3c fe38 833d d40b 91bd 055a 48be
00000220: 0450 263e 70fa 823e 0d2f 9cbe 44a3 43be
00000230: 7b95 2abd ccfd 0c3e 0e51 c0bd 530d 8cbd
00000240: ac3c d3bc d416 18be 26d6 f43d 3241 18be
00000250: 3fd1 373e 8fbd 033e 90ba 1ebb e6f3 e8bd
00000260: 9f9b 5f3d a109 233e b003 f73c 9d7b b2bd
00000270: 7502 da3d 237e 86be 29ce 2b3d 9d4d 4a3c
00000280: 12f9 1f3e 49cf 18be 0649 f1bb 1ac9 a5be
00000290: 726b acbc 6ab9 a8bd 3361 f53d 7696 a2be
000002a0: 835b 93be f6f7 293d 7f54 fa3d 5e3b c63e
000002b0: 5694 b13e 74fc 073d 9283 2c3f a497 70bc
000002c0: 2f2f 98be 0cdf 8fbc e619 43bd f974 23be
000002d0: 42fc 923d f680 adbd dd9a 72bd f590 5fbd
000002e0: 21f1 0f3d 86e2 da3d c66b 4dbc a0e5 50bb
000002f0: 8ace 243e 454d bf3d efe1 4c3d 9374 5f3e
00000300: 2f94 393c b31a 3dbe 5fdc 07be e823 ce3c
00000310: 69c3 993c d250 40be 17aa dc3d a1fa edbd
00000320: d03b e5bd 661c e5bd 20cf 5a3e 3edf 25be
00000330: ed18 fd3b 2163 ac3c 2147 903e 182d 53bb
00000340: 1f9b 953e 6f44 f6bc bf05 983e 2067 a93e
00000350: b62c edbd 9f71 b83d f688 3fbe ff4d 84be
00000360: f789 813d 64ab 673e 9ca2 5d3d 2fb2 143e
00000370: 82c1 1e3c 07c5 bd3c 5a2d 3ebe 8742 ea3d
00000380: 853e 13be 4ca3 223d fc9d 5bbd 1f89 143d
00000390: bcb3 883e e6da ad3e 7fd3 173d 5a07 89bd
000003a0: b989 fc3e 74d6 2e3d d6cd d3bd 486f 4bbe
000003b0: a614 f0bd 99b2 babd ae42 f2bd 5edd 92be
000003c0: b0f9 a2be 4a48 0bbe 5cb4 453d ee3c 05be
000003d0: 47dd 99bd 8481 d1bd 413a 16bd 59c5 773b
000003e0: e804 dabd 03ab df3d 60f1 f8bc 27df 293d
000003f0: 3587 f1bd d16d fb3d d3b3 883d e69c 8dbe
0.082091756 -0.16049875 -0.115473345 0.09379673 -0.017075196 0.06655834 -0.21354163 -0.0059137596
0.062386792 0.108464904 -0.041788656 -0.16477478 0.038875405 -0.096981734 -0.02887461 0.40483958
-0.033520017 -0.1164208 0.2099784 -0.113918506 -0.026919091 -0.15230033 0.017953092 -0.045179095
0.3056599 0.044698365 0.064531654 0.26433071 -0.32055798 0.14219078 0.28353307 0.033656534
0.14902441 -0.023164606 -0.41707632 -0.14578807 0.027526721 -0.14788681 -0.36216688 0.20297891
-0.13440064 0.0701397 -0.15523006 -0.052320667 0.05083473 -0.178816 0.06549924 0.003630915
0.10874886 -0.14101453 -0.16174842 0.03886262 -0.0759857 0.2778384 0.28961867 0.17362115
0.25123128 -0.11766817 0.07636014 0.08669581 -0.0028320632 0.075491175 0.13598253 0.0007388227
0.118430436 -0.19501537 -0.019522479 0.1253263 0.06586749 -0.44788942 -0.11820579 0.37221062
0.04511475 0.023396447 -0.12379941 0.010383852 -0.0028181246 -0.2960442 -0.63506323 0.19095635
0.13432111 0.1447243 -0.19544551 -0.1378709 -0.06561867 -0.021979492 0.16419615 0.39232656
0.047622137 -0.18904859 -0.024776388 0.27255332 0.16629787 -0.07222366 0.12278234 -0.19935505
-0.28072873 -0.081355564 0.11102027 -0.051154006 -0.027124064 -0.027077343 -0.02136124 0.08038394
0.058269933 0.03163882 0.3168139 -0.14170282 -0.20565626 0.14378099 -0.14132507 0.14053392
0.19300993 0.028281273 -0.1596756 0.06769655 -0.7460208 -0.03658839 0.046052083 -0.20401369
0.00776524 0.24927604 0.11086102 -0.09899364 -0.18435796 0.032502975 -0.058508564 -0.049321763
0.13747986 -0.015601504 0.04729518 -0.3573073 0.00866935 0.06407355 -0.07082334 -0.1956559
0.16241461 0.25581694 -0.30504647 -0.1910525 -0.041646462 0.13768691 -0.0939046 -0.06838479
-0.025785767 -0.14852458 0.11954908 -0.1486862 0.17950915 0.1286528 -0.0024220087 -0.11374645
0.05459177 0.15921642 0.030153126 -0.087149836 0.10645 -0.2626811 0.041944657 0.012347606
0.15622357 -0.14922823 -0.0073634414 -0.3237999 -0.021047328 -0.0823849 0.1198143 -0.31755418
-0.28780755 0.04149624 0.122231476 0.3871717 0.34683484 0.033199742 0.6738826 -0.014684591
-0.29723498 -0.017562412 -0.04763212 -0.1596259 0.071770206 -0.08471863 -0.05922972 -0.0545816
0.035142068 0.10687737 -0.012537902 -0.0031875148 0.16094413 0.0934091 0.050020155 0.21821813
0.011326834 -0.18467216 -0.13267659 0.025163606 0.018769937 -0.1878083 0.107746296 -0.11620069
-0.11193049 -0.11187057 0.21368074 -0.16198441 0.0077239187 0.021043362 0.28179267 -0.0032222923
0.2921991 -0.030061929 0.29691884 0.3308649 -0.115807936 0.090060465 -0.1870459 -0.25840756
0.06325143 0.22623974 0.054110155 0.14521097 0.009689691 0.023165239 -0.18571988 0.1143847
-0.14379318 0.039706513 -0.053617463 0.03626358 0.26699626 0.3395607 0.037066933 -0.06690855
0.49323824 0.042684987 -0.103419945 -0.19866669 -0.117226884 -0.09116096 -0.118291244 -0.28684515
-0.3183112 -0.13601795 0.048267707 -0.13011524 -0.075129084 -0.10229781 -0.03667665 0.0037806837
-0.10645467 0.1092129 -0.030388534 0.04147258 -0.11793367 0.12276805 0.06674924 -0.27658767

bias f4 [16]
00000000: 9921 38bd 797f 313d 553a 34bd 6df7 b73d
00000010: 5610 0a3d e1fc f5bc 39b7 97bb f19c 203d
00000020: 4b78 edbb e4d7 b1bd 3d7d 9f3d 79e3 e03c
00000030: fb6a 1c3d 282e 5cbc f1dc de3c f01e b33d
-0.044953916 0.043334458 -0.044000942 0.089827396 0.033706985 -0.030027809 -0.004629996 0.03921217
-0.007247006 -0.08683756 0.07787559 0.027452217 0.038187962 -0.013438739 0.027204962 0.08746135

weight_ih_l0 f4 [48, 16]
00000000: c6a5 f1be 4c3d a63c 30d4 633e 23fb 093d
00000010: 973d 9a3d a45a b2bd 8a46 5c3e b35e 903d
00000020: 6aa6 763e 17a9 a6bd 6e22 92be d1ea 0fbd
00000030: 18b2 543e 641b b4be e844 abbd 3df9 873d
00000040: e46e 4b3e d9f3 1bbe 4856 d13b 3578 91ba
00000050: f807 843e 6a59 23bf 032d 28bf ee8c 06be
00000060: 2ce7 663e f4d0 eb3d 3055 0a3e 5574 a83e
00000070: 044e 09bf dc90 12bd 8dbd dcbd f8e5 64be
00000080: c27b 0ebf 46bc a63e 61fd e53d 3560 843e
00000090: f405 b13e 0633 213e 8a99 223d d853 123e
000000a0: 390d d43c b5f8 a4bd 3ee2 c33e 8828 ba3d
000000b0: fef1 ddbe fa89 a5be 3c71 37bd e417 aa3e
000000c0: 799d 463d 2c9e b63e 894a bf3e 2609 62be
000000d0: 7bff db3c 5870 c13e d6b2 9d3e 27b7 003f
000000e0: 16de c6bd ec58 e5bd 9708 be3c 9c33 6ebe
000000f0: d642 ccbd 186c bcbe 673f de3c 0797 0f3f
00000100: d361 ffbe 639f 423e be76 883d bfa7 1abe
00000110: 0044 553e 8b4b ea3c 163d d13d 09a5 313f
00000120: a3d1 073f e202 87be 5983 3dbe 8042 5fbe
00000130: b3e2 88be d21d 8cbe ee00 f93d d4ae abbe
00000140: fac6 43be 0186 92be e792 60be 7415 113e
00000150: cab6 86bd 81f4 c1bd a19e 193e b284 febd
00000160: ef80 ac3e 6796 103e 95b2 ad38 bc00 6b3e
00000170: df58 ea3c 7bdb 24bd c8d9 863e 26cc e63e
00000180: 1644 9d3d bffd 94be 29e6 82be ca5a f9bd
00000190: 6ff9 763e 6685 2bbe 06f0 ab3c d16f 3e3e
000001a0: 6aee 0d3e 7023 903e 2039 a43d 9999 acbe
000001b0: 8e58 1d3f 01c2 e63e 236e 3d3e 15f8 9ebd
000001c0: e4ae 323e 2f6f 933e f77d 633d bdfa 533e
000001d0: 381a 73bd 2a5b 9ebe 9380 a93d 18f5 673e
000001e0: 2993 69be 97af 78be a303 233d 6c83 88bc
000001f0: 6007 063e d816 1f3e 2dda 783e 63bb 89bf
00000200: 15e5 aabe b350 573d be38 c6be 0605 a23e
00000210: 3add bc3e 669b 8bbe bc81 2ebe acd1 553e
00000220: 21e3 19be 7d43 a6bc 1a80 fa3e 27d3 6dbe
00000230: 0f19 02bf fe6c d7bd f38a acbe fae4 2d3e
00000240: d325 8bbd b0e9 16be fc22 14bf c459 ab3d
00000250: a728 dc3d 9f7c aebd 56d0 23bf cae8 92be
00000260: 7a58 5fbc 2d94 f73c c76e 5e3e a8a1 453e
00000270: bf1b 01bd a006 143f deb2 5bbe 5351 903e
00000280: e0d5 783e 88e2 9ebd d73f 033f 8980 123c
00000290: efca 90be e0e9 503e aceb 913e 1a7c debd
000002a0: 0bef ac3d d85a 0f3e 9f4e 6cbe d622 ce3e
000002b0: f9af 253f f5e5 723e 775a 133e 88ce 883d
000002c0: 52d8 34be 08a9 1b3f 2a8e 513d 5829 09be
000002d0: dcdf ec3d 47b5 04be 179d e73d bfd6 3e3e
000002e0: f99b 59bd 1e31 fb3e bf0e 443e a2ed 29bd
000002f0: d42b 50bd f3cc 34bd 9b19 ba3c 97a7 9c3d
00000300: f6cb 0a3f 9fc9 863e 3e0c 1cbe 037f 773e
00000310: 5843 06be 7344 f03d 57cb 82bb 7cd6 b2bd
00000320: d9b9 eebd 2e4b 16bd a928 84be 206e d33d
00000330: b14d d4be 7466 f3bc c719 9e3d 4888 99bc
00000340: 2b6d a2be 1ed8 26bd eaa7 9e3e ff12 52be
00000350: 40cb 063e 3f04 be3d 89aa ec3e 6f98 a53e
00000360: d700 2e3e 940b 4a3e 6bca 303e 8e4d b2be
00000370: 9a31 08be f3c4 0cbf be6b 83bd 5ad6 a4be
00000380: a61e da3e 68e3 0bbf e7b6 65be f97a 2b3e
00000390: 5df4 8e3d bf05 9cbe e21d 9abe fde4 43be
000003a0: c675 bcbd 9094 a63e d32c 4fbe ec33 51be
000003b0: 50ba 633e 04a1 ae3e 1ef6 0d3f ba58 253f
000003c0: 8a72 0abf 5f8f aebe b1a3 ff3e a570 213e
000003d0: 4382 3a3d 0568 0a3f 4935 4a3d 0801 f43e
000003e0: 3f8b 15be 5409 2e3e 9379 02bf 1a99 fe3e
000003f0: 51f4 a83e 0988 3cbe 0d82 913d 1523 9e3e
-0.47196788 0.0202929 0.22248912 0.03368677 0.075312786 -0.087086946 0.21511284 0.070493124
0.2408692 -0.0813772 -0.28541893 -0.035136048 0.20771062 -0.35177147 -0.08362752 0.06639335
0.1986652 -0.15229739 0.0063884594 -0.0011098447 0.2578733 -0.6380831 -0.6569368 -0.13139698
0.22549123 0.11514464 0.13509059 0.32901254 -0.5363467 -0.03578268 -0.107783414 -0.22353351
-0.5565759 0.32565516 0.11229969 0.2585465 0.34574854 0.1574212 0.039697208 0.14289796
0.025885211 -0.080552496 0.38258547 0.09089762 -0.43348688 -0.3233183 -0.044785723 0.33221352
0.04849002 0.3566755 0.37361553 -0.22073802 0.026855221 0.37781024 0.30800503 0.5027947
-0.09710328 -0.11198601 0.023197455 -0.23261875 -0.099736854 -0.3680122 0.027129842 0.56089824
-0.4987932 0.19006114 0.06663273 -0.15103053 0.20826721 0.028600475 0.10216729 0.6939245
0.53054255 -0.26369387 -0.18507136 -0.21802711 -0.26735458 -0.273665 0.121583804 -0.3353182
-0.19118872 -0.28617862 -0.21931039 0.1416834 -0.06577833 -0.094704635 0.15001918 -0.12427653
0.3369212 0.14119874 8.282546e-05 0.22949499 0.02860683 -0.040248375 0.2633803 0.45077628
0.07679002 -0.29099843 -0.25566223 -0.1217552 0.24118589 -0.16750106 0.020988476 0.18597342
0.13860479 0.28152037 0.08018708 -0.33710936 0.6146325 0.45069888 0.18499045 -0.07762162
0.17449528 0.28795764 0.05554005 0.20701118 -0.059351176 -0.30928928 0.08276477 0.2265209
-0.22810043 -0.24285732 0.03979839 -0.01666423 0.13088751 0.15536058 0.24301977 -1.0760311
-0.333779 0.052567195 -0.38715166 0.31644458 0.36887532 -0.27266997 -0.17041677 0.20880765
-0.15028049 -0.020295853 0.4892586 -0.2322508 -0.50819486 -0.105188355 -0.3369976 0.16981879
-0.06794324 -0.14737582 -0.5786588 0.08366731 0.10749941 -0.08519863 -0.6398977 -0.2869323
-0.013631934 0.030222023 0.21721946 0.19299948 -0.0315206 0.5782261 -0.21454951 0.28187045
0.24300337 -0.07758051 0.51269287 0.008941778 -0.28279826 0.20401716 0.28500116 -0.10863514
0.08444031 0.13999498 -0.23076867 0.40260953 0.6472164 0.23720534 0.14389978 0.06680018
-0.17660645 0.60804796 0.05116097 -0.13394678 0.11566135 -0.12959777 0.113092594 0.18636607
-0.053127263 0.4906091 0.1914625 -0.04148639 -0.050823048 -0.044140767 0.022717288 0.07649153
0.5421747 0.263257 -0.15239045 0.24169545 -0.13111627 0.11731806 -0.003991525 -0.08732316
-0.116565414 -0.03669279 -0.2581227 0.10323739 -0.41465524 -0.02971194 0.077197604 -0.018741742
-0.31723914 -0.04073345 0.30987483 -0.20515059 0.13163471 0.09278154 0.46223858 0.3234286
0.16992508 0.19730979 0.17264716 -0.34824795 -0.13300171 -0.5498802 -0.064170346 -0.32194787
0.42601508 -0.5464387 -0.22433053 0.16746129 0.06980202 -0.30473134 -0.30100924 -0.19130321
-0.09202151 0.3253522 -0.20231943 -0.20429963 0.22239041 0.3410722 0.5545367 0.6458851
-0.5408102 -0.34093758 0.49929574 0.15765627 0.045534384 0.5406497 0.049367223 0.47657037
-0.146039 0.16995746 -0.5096676 0.49726182 0.329989 -0.18411268 0.07104883 0.3088614

weight_hh_l0 f4 [48, 16]
00000000: da28 033e 896a 9cbe 5263 a73d 1b34 423e
00000010: 3430 ae3e a19a 983e 6fd0 58bd a231 7d3e
00000020: c73f d6bd 4643 c2bc 88f5 373e 9784 2dbe
00000030: 9d45 f63c 8870 b7bd c50d 873d 0771 da3e
00000040: 26a1 5bbf f8f6 5fbc 80e4 49bf 837b 03be
00000050: 89dc 893c 1fa8 8a3d a037 b5be 269c c73c
00000060: de47 773d 9b25 f9bd 6c55 c73d e53e a8be
00000070: 3904 d1bc bb0e eebe 1166 10be cbe1 783b
00000080: 8fb0 553e 93d9 b23a 92d9 c23d 36c6 30bf
00000090: e5c3 2b3e 7673 193d 8f9a 943e 6e9a 1f3d
000000a0: 338d d23d 4dba 84be de58 413e 109f 843d
000000b0: 3a8f 63be 9fd5 803e af53 3ebe 9de6 4bbe
000000c0: f457 3d3d c5d6 a2be c3be 193d 4977 f93b
000000d0: 9177 083f e534 a0bd 9f08 343d 28c3 783d
000000e0: c50f abbe 79e3 b4be 0acb 213f 1d88 b3be
000000f0: 26ea 873d 1c21 69bd 34e3 8fbd 6862 24bd
00000100: f6b1 cc3e fe65 54be 2d24 26bf 31d9 a03d
00000110: b998 373e ed7a 80bc ed0d dd3c 625c 8bbe
00000120: 47a5 8fbe a742 77be c559 833e ed11 613d
00000130: 8292 dbbe 524a 8e3e f08f a5bd 9e6b 193e
00000140: 3fac 6b3e a298 743e ccf5 aabe 766c a93e
00000150: 964d 433e ee9e d2bd 9d29 f13e 2251 943d
00000160: 0dd6 893d 9c14 da3d e90c 80be a1bc 653e
00000170: a4e0 673e d5bf 193f 61b7 69be 4762 93be
00000180: 857b 573e 2b0b a03e 5794 b23c eb85 afbe
00000190: 0be2 3abe 0162 cdbe 51bb b4bd 10a8 9a3e
000001a0: 95ec b5be 4e85 e13c 441f 46bd 9a88 ee3d
000001b0: d558 953e 2a02 0e3e ae76 babd bf71 cc3e
000001c0: e1ca 9fbe 8e4a 4cbb 060a a0be 7d30 abbe
000001d0: 95af 093e 1923 73be b567 943d f74c f9be
000001e0: 74dd 0fbf 383f 6ebe 1a24 453e 5df3 a8be
000001f0: 4c8a da3d 6bfe 6bbe e99a b33e 5a52 903d
00000200: 1721 8abe 4d50 2d3e e4e6 6fbf 419d 90bd
00000210: d708 c4be 6ee7 1abe bcda cd3e a836 d3be
00000220: 8328 82be 2453 1fbc a284 36be 11bd 45be
00000230: d0e0 4ebe b892 e43d 9e1b e0bd 39c3 bf3e
00000240: d80a ef3d 0a52 763e 73b7 e23c 4866 03bf
00000250: f531 e13d c023 4e3e de25 8c3e e8f1 4b3e
00000260: 7651 abbe 0410 18be 1d24 6e3e 4c67 b53e
00000270: 3701 693e c715 e03e be1a bcbe ee26 f33d
00000280: 04ec 64be 42b2 a4be 8dc6 443f afbf c7be
00000290: 408b 0d3f 02e0 93be 63ad 693d 040c fe3e
000002a0: 9eef 67be 5085 68be 324c 18be 0dc2 8c3d
000002b0: 8d09 c13d 2a83 06bd 79d2 a43e 0303 933d
000002c0: ae59 07be 801c fb3d eafb 993d 832f 7f3d
000002d0: 57df 04bd 9dfc 633e eac2 04be 722f 22bf
000002e0: 8291 dbbd 4e09 28be fcb6 0e3f ef20 423c
000002f0: 3343 81be 5981 633d 9839 f2bd bf40 cb3e
00000300: 63d5 8ebd 3c4b 9fbd 38be 90be bfbc f6bd
00000310: 89ca 1d3e e271 8c3d fff7 273d b3b2 be3c
00000320: b3d7 c1bd d6c0 d3bd e2be a43c e492 5b3e
00000330: fa3c 9b3e 471b 493e 0501 453e 1d1f 1dbf
00000340: 6686 09bf a010 0c3d c9d5 dbbd 0de8 6fbe
00000350: e87f f5bd f23d 60bc 91bb 06be b9c7 0abe
00000360: eba4 e73d e15b 513e 4a12 843e 4147 7c3c
00000370: 29f3 c03d dcf3 72be f59c 92be d826 adbe
00000380: 440f 9b3e 6f0f 0fbd 9fbb 4b3e 3c48 073e
00000390: 11b1 183e b530 0bbf 43b2 16be 076d 453c
000003a0: 0a13 c9bc ec7c 663e daa6 13be b85d 3c3e
000003b0: 0a6d 813d 7034 b23e a257 cd3e 7d03 9dbe
000003c0: b78d 08bd c367 20bd 1d7a 9d3c a8fc 6c3e
000003d0: d6f7 a43e be7f 51be 9b26 54bc 9747 9cbe
000003e0: bff9 e5be 9dd4 93be 7c73 8ebe 652f e03e
000003f0: 2eef 1a3e 3344 843e 90ca 1b3d 8ff8 e93e
0.12808552 -0.3055003 0.08173241 0.18965189 0.3402115 0.29805472 -0.052933153 0.24725965
-0.10461383 -0.02371372 0.17964756 -0.1694511 0.030062491 -0.089570105 0.06594423 0.42664358
-0.8579277 -0.013669722 -0.7886429 -0.12840085 0.016828792 0.06770348 -0.35394 0.02436645
0.060371272 -0.12165376 0.0973309 -0.32860485 -0.025514709 -0.46495613 -0.14101435 0.003797638
0.20868133 0.0013645164 0.095141545 -0.69052446 0.16773947 0.037463628 0.2902417 0.038965635
0.10280838 -0.25923386 0.18881556 0.06475651 -0.22222605 0.2516298 -0.1858661 -0.1991219
0.046226457 -0.3180448 0.03753544 0.007613097 0.53307444 -0.07822589 0.043953534 0.06073299
-0.3341047 -0.35329798 0.6320044 -0.35064784 0.06636457 -0.05691634 -0.070257574 -0.04013291
0.39979523 -0.20742032 -0.6489895 0.07853926 0.17929353 -0.015683616 0.02698418 -0.2721892
-0.28055784 -0.2414652 0.25654426 0.054948736 -0.42885214 0.27791077 -0.080840945 0.14982459
0.23014925 0.2388635 -0.33390653 0.33090562 0.19072565 -0.1028422 0.4710206 0.07242037
0.0673028 0.10648462 -0.2500985 0.22435237 0.22644287 0.6005834 -0.2282386 -0.28785917
0.21043213 0.3125852 0.02179925 -0.3428186 -0.18250291 -0.40113834 -0.0882479 0.30206347
-0.3553206 0.027529385 -0.04836966 0.116471484 0.29169336 0.13868013 -0.091046676 0.3993053
-0.31209472 -0.0031172368 -0.31257647 -0.3343543 0.13445885 -0.23743857 0.07246343 -0.48691532
-0.56197286 -0.23266304 0.19252053 -0.3299817 0.10670909 -0.23046272 0.35079125 0.07046957
-0.2697837 0.16925164 -0.93711686 -0.07061244 -0.38287994 -0.15127346 0.40205944 -0.41252637
-0.25421533 -0.009724412 -0.17824033 -0.19310404 -0.20202947 0.11160797 -0.109427676 0.3745363
0.1167199 0.24054733 0.027675366 -0.51327944 0.10995857 0.20130825 0.2737264 0.19916499
-0.33460587 -0.1484986 0.23255964 0.35430372 0.2275437 0.43766615 -0.36739153 0.118726596
-0.22355658 -0.3216725 0.76865464 -0.3901343 0.55290604 -0.28881842 0.05705012 0.49618542
-0.2265 -0.22707105 -0.14872816 0.0687295 0.0942565 -0.03283993 0.32191828 0.07178309
-0.13217804 0.12261295 0.07518752 0.06230117 -0.032439556 0.22264333 -0.12964979 -0.63353646
-0.10721113 -0.164098 0.5574796 0.011848672 -0.2524658 0.055543277 -0.118273914 0.39697835
-0.06974294 -0.07778022 -0.28270125 -0.12047719 0.15409292 0.06857659 0.041007992 0.02327857
-0.094649695 -0.10339515 0.020110551 0.21442753 0.3031996 0.19639312 0.1923867 -0.613756
-0.537207 0.034195542 -0.10734136 -0.23428364 -0.11987287 -0.013686644 -0.13157488 -0.1355275
0.113107525 0.20445205 0.25795203 0.015397848 0.09421379 -0.23725837 -0.28635374 -0.33818698
0.30285084 -0.034926828 0.1989579 0.13211149 0.14911295 -0.54371196 -0.14716439 0.01204992
-0.024545211 0.22508591 -0.14419118 0.18395126 0.06319626 0.34805632 0.4010592 -0.30666724
-0.033338275 -0.039161455 0.019223267 0.23143256 0.32220334 -0.20458886 -0.012948657 -0.3052337
-0.44917104 -0.2887315 -0.27822483 0.4378616 0.15130302 0.25833282 0.038034976 0.45697448

bias_ih_l0 f4 [48]
00000000: 6be3 b6bd 46a6 84be 0100 073d 8589 35bc
00000010: f26e 29be 2a10 fcbb 0b8a b33d b39e c03e
00000020: 919f 833e 8ffd 8d3b 4b9b e7bd 18ed 623e
00000030: 2532 023e 6507 01bc b051 6c3e c13c 4abd
00000040: 0053 0f3f 05ff 953e 38a3 b13e 7631 7b3e
00000050: e9b5 11be a85f a93e c739 cc3d 464d cd3e
00000060: 13c1 7f3d efa3 b83e 788d 87bc 9e03 ee3d
00000070: 6fbb 80bc 6b16 90be 4cbc 2d3e 67d2 f23e
00000080: 81e2 08be 633b 53be 3ef7 783d 951b 353e
00000090: 0a05 253d 5a7c a13d ac6d 06be 52c5 db3d
000000a0: 6725 8e3d e543 1d3e 935a 493e 0664 7e3e
000000b0: e540 0e3e deff 85be 3c6d 403e d99b aa39
-0.08930095 -0.25908107 0.032958988 -0.0110801505 -0.16546229 -0.0076923566 0.08766564 0.37621078
0.25707677 0.004333205 -0.11308917 0.22160757 0.12714441 -0.007875298 0.23078036 -0.049374346
0.5598602 0.29296127 0.3469484 0.24530587 -0.1422955 0.33080792 0.09971958 0.40098017
0.06243999 0.3606257 -0.01654695 0.11621784 -0.015714375 -0.28142104 0.16966361 0.4742615
-0.13367654 -0.20628123 0.060782664 0.17686303 0.04028801 0.07885046 -0.13127774 0.10730995
0.06940728 0.15357931 0.19663458 0.24842843 0.13891943 -0.26171774 0.1879167 0.00032541042

bias_hh_l0 f4 [48]
00000000: d5a5 6cbd ccc2 ab3d 42ed c93d d79e ccbd
00000010: e1a8 573d 3dac 173e 2834 ff3d ade0 a23d
00000020: 0584 42bd 0673 bcbd a785 08be 371c 1c3d
00000030: bc4f b6bc a6a1 9e3e 124f 3e3c ea47 823d
00000040: 7673 953e 84f1 b33d 9fd3 893e 296e 033f
00000050: 4c72 583e 2a68 bbbd f5d9 8a3d e745 dc3e
00000060: 5d63 913e d727 c13e 84fc 6ebd 201f 793e
00000070: 5eca dd3d 21b6 e6be 0cb2 b03e c02e a33e
00000080: b022 c2bd cc6d 5c3e bf1d 61be 45fa 9ebd
00000090: cff7 bdbd c35b 563e f949 313e a988 373e
000000a0: e96c 14be 2188 f5bd 8e51 623e 93ff 5d3e
000000b0: eaa1 593e 7aa8 3c3d 4415 d53c 5855 f43c
-0.057775337 0.08386764 0.098597065 -0.09991234 0.05265129 0.14811797 0.1246112 0.0795301
-0.047489185 -0.092016265 -0.13332234 0.038112845 -0.022254817 0.30982703 0.0116155315 0.06361373
0.29189652 0.087863 0.26919267 0.51339966 0.21137351 -0.09150727 0.06779853 0.4302208
0.2839612 0.37725708 -0.058346286 0.2432828 0.10829614 -0.45060828 0.3451084 0.31871605
-0.09479272 0.21526259 -0.21984003 -0.07762579 -0.09275781 0.20933442 0.17313375 0.17923225
-0.14494671 -0.11988855 0.22101423 0.21679525 0.21253172 0.04605911 0.026011117 0.029825851

in_proj_weight f4 [48, 16]
00000000: 895b dc3e 0915 b73e 9e6d 483e b9a0 573f
00000010: 73c3 cdbe ca04 2c3c bc70 063f e539 293f
00000020: b9f4 d03d ea6d 8d3d f363 a03e 898b 5c3e
00000030: 1174 9b3d b1b2 bbbb 8f75 f53e 2800 263e
00000040: 8a29 5cbf 04b6 2bbf c940 c5be 4c5a 41bf
00000050: 9a10 513e 90d2 5abe cf3a 12bf 09be 0fbf
00000060: df51 91be 5ab9 f7bc 27cf d63e d3f5 73be
00000070: b873 adbe c067 0a3f eeae 34be 5bdf 8cbe
00000080: f013 d43e b369 3d3f 50a4 8ebd 8e2b 593e
00000090: 6faf c8be 05fc 0bbf e2eb 563e 346f 303f
000000a0: 20fb 773d b50b 303e 404b 9bbe 2c54 b23d
000000b0: de63 28be 45f4 73be b345 94be 5e52 16be
000000c0: 7df5 153f 995a bb3e f4c9 443d a7f9 9d3e
000000d0: 4a0f 3abe f3c0 16bf 73b7 e93e e225 0c3f
000000e0: e4f0 123e 67c1 e13e f47a 91be a2c0 d93e
000000f0: 14fd 19be 8231 683e 3078 24be 1f88 313d
00000100: 03a0 20bf c904 2a3d b2b5 01bf 62f4 2cbf
00000110: d021 d53e b6f4 2bbf 7b81 43bc 14c3 9cbe
00000120: 5689 acbd 1b89 0dbe 0334 2dbe d48f 83be
00000130: 2ee1 983b e639 d53e a36e a1be d320 5fbe
00000140: 72b1 45be acc8 f1bd c443 20bf 7f21 5fbe
00000150: 78ec b33d 1a06 b9be bf51 89be 01df e8bc
00000160: 7fe6 77be 4a84 19be 8814 f0be 0be6 91be
00000170: 147b 0ebf b3ab f53e 1982 edbd 7d0e 27bd
00000180: 2641 25be df40 90bd 313a c3be 80c7 6abe
00000190: 2be8 97be 1e87 94be 5e68 9fbe e04e a0be
000001a0: da6a a33d c94e 81bd d26c 24be 51c2 57bd
000001b0: 511d 2dbe 0a2d 663e 357e dfbb b4d2 8f3e
000001c0: 5bec 4e3e 79a3 b43e 2818 cd3e b5c2 2b3f
000001d0: 1f31 e03b 5723 e83e 0909 cc3e 7636 d03e
000001e0: 4d71 01bd e0b7 39be 34c0 0dbe 094d fa3d
000001f0: 5a62 033f c104 fcbe 2514 883d 62cb 783e
00000200: 8dd5 353e 9f95 98be 437e 443e 908a 253e
00000210: c16d 433e 5026 02be 3624 bcbd df88 16bf
00000220: 0371 15bf cf89 13be 9cfe 563e 6e3c 54be
00000230: cd76 083e 5ec5 2f3e c4ae a0be 46c1 d03e
00000240: e767 03bf 4244 03bf a263 7ebe 1ecc aa3d
00000250: 4cef aa3e 858e 19be 94fc cabd 98c2 63be
00000260: 58db d3be cd3d c9be 399e bb3e 9c4e 2bbf
00000270: fa1a 85bc 9ede 21bd cc3a 7ebe e005 0cbe
00000280: b22a 06bf 753f a5be 60cb a6be 2e56 dfbe
00000290: 0ebb fb3e ff2d 69be 927f 1f3e 4e87 54be
000002a0: aa76 5cbd 8d10 8abd 7710 02be 105d 24be
000002b0: 9cbf 27be db8c 3c3d e4f3 23be 5dfb abbd
000002c0: fd9f 903e 1652 41be 89b7 303e 4b7d 3cbe
000002d0: 177f 07bb 5d15 2d3e 468d 0abe c077 8bbe
000002e0: bee7 8ebe d9d5 09bf 9dbe 163f 4964 dcbd
000002f0: 8fd3 cc3c 6f88 2abf 53c2 ea3e 9cde e63e
00000300: d663 7ebc 8efd 02bf 5455 63be 2104 97be
00000310: c4f1 c73d aced afbe 6b84 ddbe 52d6 02bf
00000320: df1c 9dbe 9cf4 903d af59 a5be 591c 803e
00000330: a7a7 13be ad6a 033f 3f8b 07be 6ce2 5cbe
00000340: 58d8 bfbb edbb e1be 041c 15be 9b2a 643e
00000350: 2639 90bd 2242 92be 4fcd 9cbe 51b4 4b3e
00000360: c978 fe3d 6e0a 563e 2477 75be 6af9 b8be
00000370: 58c4 b2be d439 563e e6aa d4bc 687d 73be
00000380: cdb9 b43e c4cb c43e 9bfa 073e b190 ea3e
00000390: c3c5 a7bc 35f1 ed3e bf31 ba3e 1f47 013e
000003a0: 5dd8 923e 438d 9d3d a779 333e 1bc7 1b3e
000003b0: bc5c 933e 2435 cbbe 1d9b c63e fc69 aa3b
000003c0: 8bd5 c53d 928e 513c d2d5 bc3c ed95 55bd
000003d0: c3ac 3f3e 5a1b 763d 0593 fe3d f695 10be
000003e0: 9ab5 27be 5191 70be 0c86 613e 4a7c 553e
000003f0: 32b5 98be b47e f03e 5e59 a5be deb2 04bc
0.43038586 0.35758236 0.19573066 0.8422962 -0.40188178 0.010499189 0.5251577 0.66103965
0.10202927 0.0690573 0.31326255 0.21537603 0.07590497 -0.005728089 0.47941253 0.16210997
-0.86000884 -0.6707461 -0.3852599 -0.7552841 0.20416489 -0.21369386 -0.57120985 -0.56149346
-0.28382775 -0.03023975 0.4195492 -0.23824243 -0.3387735 0.5406456 -0.17644855 -0.27514157
0.4142146 0.7398941 -0.06964934 0.21208021 -0.39196345 -0.54681426 0.2098842 0.6891968
0.060542226 0.17191966 -0.3033085 0.08707461 -0.16444346 -0.2382365 -0.28959426 -0.14679858
0.5857771 0.36592558 0.04804416 0.30854532 -0.18169895 -0.5888817 0.45647773 0.54745305
0.14349705 0.44092867 -0.28414118 0.4252978 -0.15037948 0.22675136 -0.16061473 0.043342706
-0.6274416 0.04150847 -0.5066787 -0.675604 0.4162736 -0.67170274 -0.011932726 -0.30617583
-0.08424632 -0.13821833 -0.16914372 -0.2569567 0.0046655154 0.41645736 -0.31529722 -0.21789865
-0.19305971 -0.11805853 -0.626034 -0.21790121 0.08785337 -0.36137468 -0.2682018 -0.028426649
-0.24209021 -0.1499187 -0.46890664 -0.2849582 -0.5565655 0.4798256 -0.1159708 -0.0407853
-0.16138133 -0.07043623 -0.38130334 -0.22927666 -0.29669318 -0.29009336 -0.31134313 -0.31310177
0.07979365 -0.06313855 -0.16057137 -0.05267555 -0.16905715 0.22478119 -0.006820465 0.2809044
0.2020735 0.3528097 0.40057492 0.67093974 0.006841793 0.45339462 0.39850643 0.4066655
-0.031602193 -0.18136549 -0.13842851 0.122217245 0.5132195 -0.49222377 0.06644467 0.24296334
0.17757244 -0.29801652 0.1918879 0.16166139 0.19084837 -0.12709928 -0.09186594 -0.588026
-0.5837557 -0.14408039 0.20995563 -0.20726177 0.13326569 0.17165133 -0.31383336 0.40772456
-0.5133042 -0.5127603 -0.24842694 0.083397135 0.33385694 -0.14995773 -0.09911457 -0.222422
-0.41378284 -0.39304963 0.36644152 -0.66916823 -0.016248215 -0.039518945 -0.24827117 -0.13674116
-0.524089 -0.32274976 -0.32577038 -0.43620437 0.4916615 -0.22771452 0.15576008 -0.2075474
-0.053824104 -0.06741438 -0.12701593 -0.16051126 -0.16381687 0.046032768 -0.16011006 -0.08397553
0.2824706 -0.1887897 0.17257513 -0.1840717 -0.0020675117 0.1690268 -0.13530454 -0.272398
-0.2791118 -0.5384193 0.588846 -0.107613154 0.025003223 -0.6661443 0.45851383 0.45091712
-0.015526732 -0.51168144 -0.22200519 -0.29495338 0.0976291 -0.34361017 -0.4326509 -0.51108277
-0.3068609 0.070779055 -0.32294986 0.25021628 -0.14419423 0.5133465 -0.13236712 -0.21570748
-0.0058546476 -0.44088688 -0.14561468 0.22281878 -0.0704215 -0.2856608 -0.30625388 0.19893004
0.12425382 0.20902416 -0.2397123 -0.36127788 -0.34915423 0.20920497 -0.025960397 -0.23778307
0.35298005 0.3843671 0.13279192 0.45813516 -0.020480042 0.4647309 0.36366078 0.12624787
0.28680697 0.07692959 0.17526875 0.15212671 0.28781688 -0.3968898 0.38790217 0.0052006226
0.09659871 0.012790339 0.023051176 -0.052144933 0.18718247 0.06008468 0.124303855 -0.14119706
-0.16377869 -0.23492934 0.22023791 0.20848194 -0.2982574 0.46971667 -0.32294744 -0.008099286

in_proj_bias f4 [48]
00000000: 7848 fb3d 2d13 bcbe f23a 8d3d 6e69 20bd
00000010: 59cf 39be 5253 2cbe bf6f fcbd d2c2 433e
00000020: bdb8 b0bd 1d15 36bd 420b 96be f669 e63e
00000030: 7977 9bbe 773c 0dbe 402d 9a3e 0486 a5be
00000040: c23e 983d a170 ebbd 42fc 3a3d f518 be3d
00000050: 6bd2 cabc 7d12 3dbd 8320 a0bc a4d2 083d
00000060: 4322 61bb 369c 283b e120 fa3c 7c36 e5ba
00000070: 5fdb f8bc ac29 2a3a 913a 9a3c d9a2 b93b
00000080: 58e3 b33c e106 f7bd d803 083d 6ee8 cd3c
00000090: ae2d f33d 67bb 183e e34b 9b3c a5aa 09be
000000a0: 8196 2ebc 607b 993d 4288 ef3c b59f 0bbc
000000b0: 682a afbd 93fb 013c 78fc ab3d ef71 c13d
0.12269682 -0.3673338 0.068960086 -0.039163046 -0.18145503 -0.16828659 -0.123260014 0.19117287
-0.08628986 -0.04445373 -0.29305464 0.45002717 -0.30364588 -0.13792597 0.30112648 -0.32328808
0.07433845 -0.11496092 0.045650728 0.09282104 -0.024758538 -0.04616021 -0.019546753 0.033404008
-0.0034352697 0.0025727875 0.030533256 -0.0017487551 -0.030378042 0.0006491195 0.018826755 0.005665165
0.021958992 -0.12061859 0.03320679 0.025135245 0.11873947 0.14915238 0.018957084 -0.13444002
-0.010656 0.07494235 0.029239777 -0.008521964 -0.0855301 0.007933515 0.08397764 0.09445559

weight f4 [16, 16]
00000000: b133 a5be 0820 e2bd a267 773e 0210 5c3e
00000010: b95e 943e 0ad1 ae3e 508c 6e3e 7f5a afba
00000020: 99d3 f3bd a9ab 803d 2df8 8fbd 3cda 323e
00000030: 423d 0ebd 77fe e33d 398c db3c 9bc5 2cbe
00000040: e149 3bbe 0719 2b3e 4d8c 30be 5624 2cbe
00000050: 0fae 03be d559 bbbe 005b 02bc 2144 833e
00000060: 8b3d 2c3d 7218 0f3e 3217 43be 237f 30bd
00000070: beb0 73bd 26d8 c53e 882f 213e 9a64 733d
00000080: c188 bbbd 9001 0fbf bb63 9d3e 82f0 253d
00000090: e504 603e da55 bc3d 3ebf 12bc 37dc c7be
000000a0: 85e2 b93d 1aff b4bd ecc1 223e 3cc8 2a3e
000000b0: a2c0 a0be 1b4d 8ebe e0c8 7c3e 07ae 373e
000000c0: 7051 163e 9e84 be3d b167 d33e 139d 7c3d
000000d0: cfb0 93bd 14e1 77bb ec78 703e e204 b43e
000000e0: c004 a4bd 6626 eb3d 145a 813e faf3 2dbe
000000f0: d791 8b3e e0ae 8a3c 5ae1 243e 1e17 9dbe
00000100: 9071 44be bf5d dfbe 354d 453e d2c6 97bd
00000110: 7f26 533e 52da 833e 664d 08bd 6bab 103e
00000120: ec60 cf3d 2364 45be 9db9 f5bd 22bf 413e
00000130: 11c2 94be 4c6f bdbd e4f3 65be b540 16be
00000140: 01f8 693e ddb4 cbbd f852 f8bd 4660 a83d
00000150: cbe9 703e 9199 69bc 18a2 803e 855e 3abe
00000160: e886 9c3e f47e 0ebe f469 c63b e0f2 283e
00000170: 7161 debd 50b2 053e 0f38 ec3d 3ea1 5dbe
00000180: 4281 39be 0811 8d3e ec0e 093e 278a 063e
00000190: 5dd4 babe 3f23 c53e ab27 adbd ff47 13be
000001a0: 1d3e a4bd 4b53 4d3e 5ba4 0a3e 76a7 4a3e
000001b0: 482e f3bb fccf febb 50ff e5bd 582c 5b3c
000001c0: a920 1b3e 49ed 83bd 5d1c 8a3e ca90 b3be
000001d0: 4ea5 6abe 6fd6 94be 5dd8 ed3d c321 ce3e
000001e0: 1cb2 14be 3d76 903c cb5e d83d 78b5 bdbd
000001f0: 388e 8f3e bc79 dbbd 0a11 a13d 2d7d 42be
00000200: c41e 59be 8982 30bd 94d6 adbd 3d1f 2cbe
00000210: 1140 993e 02f0 f03d 4180 0c3e 0b39 2e3c
00000220: 1622 433d 619d 443e a458 2dbe 662c 223e
00000230: 4ca8 47be 4aef 843d 16bc 7fbe 5a76 e4be
00000240: a495 ed3d ff12 b13e a980 07be 1835 ccbd
00000250: 2e8b 303d 7991 07be 984b b3bd deaf 353e
00000260: 75eb e8bd 74e2 b8be 1d6f 5bbe 7a1e a33e
00000270: f804 f33e bfc4 f53c 2a76 2abe ca8b 623d
00000280: c246 f03d 5733 dc3d 0371 7cbd 1711 9f3e
00000290: c4bd 013d f492 c33e 7c3b a83d 26ba 9fbe
000002a0: 5735 76bd cce6 bebc e0bc 4abe 39b8 573e
000002b0: e0ef 98be cc88 ebbd dca2 48bd 6283 253e
000002c0: 6449 2a3e 4ed7 17be e417 623e dfc2 24be
000002d0: a257 383e eb1f 213e 4874 77be e517 65be
000002e0: f9bd 883e 29e2 273e 01d0 203e 3407 78be
000002f0: 144e 6abe 7270 b63d f49c 093e 703f b73d
00000300: 5d1b b9bd 6ef6 12bd 9156 45be d0c6 d13d
00000310: bd7a 9d3d 3b52 53bd 097e 16be f8d6 2d3d
00000320: de33 91be 6ca0 1a3e 139f 1dbe c084 55be
00000330: 636b dbbd 9265 453d 7383 483e 2fd4 ec3e
00000340: b9dd 9bbe 759e 1cbd ef48 80be 0742 8cbe
00000350: ee15 bd3c b900 4c3d cea8 58be 08b7 8cbd
00000360: f8ea 72bd b121 66bc 4ddc a3be 2ef4 b33e
00000370: 8afe 7ebd a433 9abd 1c2e 4f3e 37dd 293e
00000380: 294f babd e90e d7bc a8c3 d33c 3d88 903d
00000390: 167b 443d 543d 9fbd 3780 653d e0ab 2f3e
000003a0: 48fd 333e 08eb 523e 0ada ff3d a561 e6bb
000003b0: 0822 4dbd 2140 18bd bb94 343d 4978 1d3e
000003c0: 4492 cf3d 81ec e7bd c212 ca3d cd51 58be
000003d0: fec9 15be 9090 9bbe 568d 49be 9f9c ffbd
000003e0: dc16 01bb 0447 593d d24a c63d 4e87 813d
000003f0: fbab 2dbd 322c 103e 804a 153d 6a0d 26be
-0.32266 -0.11041266 0.24160627 0.21490481 0.28978518 0.3414386 0.23295712 -0.001337841
-0.119055934 0.062827416 -0.07029758 0.17466062 -0.03472639 0.1113252 0.026800262 -0.16872256
-0.18289901 0.16708766 -0.1724102 -0.16810736 -0.12859367 -0.36591974 -0.007956266 0.25637916
0.04205088 0.13974169 -0.19051817 -0.043089997 -0.059494726 0.3864147 0.15740788 0.059422113
-0.09156943 -0.5586176 0.3074015 0.04051257 0.21876867 0.091960624 -0.0089567285 -0.39035198
0.09076408 -0.08837719 0.15894288 0.16677946 -0.31396967 -0.27793202 0.24686003 0.1793748
0.14679503 0.093026385 0.41290048 0.061673235 -0.07211458 -0.0037823366 0.23483628 0.35159975
-0.080087185 0.11481933 0.25264037 -0.16987601 0.27259704 0.01692909 0.1610159 -0.306817
-0.19183946 -0.4362621 0.19267733 -0.07410969 0.20620154 0.25752503 -0.033276938 0.14127891
0.10125908 -0.1927648 -0.119982935 0.18920568 -0.2905431 -0.09249744 -0.22456318 -0.14673121
0.22848512 -0.09946606 -0.121252 0.08221488 0.23526685 -0.0142578045 0.25123668 -0.18200119
0.30571675 -0.13915616 0.006055111 0.164989 -0.10858429 0.13056302 0.1153413 -0.2164354
-0.18115714 0.27552056 0.13384598 0.13138638 -0.36490145 0.38503453 -0.08454832 -0.14382933
-0.0801966 0.20051305 0.13539259 0.19790444 -0.0074212886 -0.0077762585 -0.112303376 0.013377272
0.15149178 -0.06441743 0.26974764 -0.35071403 -0.22914621 -0.2906985 0.11613534 0.40260133
-0.14521068 0.017634505 0.10564955 -0.09263128 0.28038192 -0.10716578 0.07864578 -0.18993063
-0.21203142 -0.043093238 -0.08488193 -0.16808791 0.2993169 0.11764528 0.137208 0.010633717
0.04763993 0.1920066 -0.16928345 0.15837249 -0.19497794 0.06490953 -0.24974093 -0.44621545
0.11600807 0.34584805 -0.13232674 -0.09971064 0.043101482 -0.13239087 -0.08754653 0.1774287
-0.11373035 -0.3611027 -0.21429105 0.3185919 0.47464728 0.030001042 -0.16646639 0.055309094
0.11732246 0.1075198 -0.061631214 0.31067726 0.031675115 0.38198054 0.08214471 -0.31196707
-0.060109463 -0.023303412 -0.19798613 0.21066369 -0.2987051 -0.11500701 -0.04898344 0.161634
0.16629559 -0.14828226 0.22079426 -0.16089962 0.1800218 0.15734832 -0.24165452 -0.22372396
0.26707438 0.16394867 0.15704347 -0.24221498 -0.22881347 0.08908166 0.13438779 0.089476466
-0.09038422 -0.035879545 -0.19271304 0.102429986 0.07689426 -0.051592093 -0.14696516 0.04244134
-0.28359884 0.15100259 -0.15392713 -0.20851421 -0.10713842 0.048192568 0.19581394 0.46255633
-0.30442598 -0.038237054 -0.25055644 -0.27394125 0.023081746 0.049805377 -0.21158144 -0.06870848
-0.059306115 -0.014046119 -0.32004014 0.35147232 -0.062254466 -0.07529381 0.20232433 0.16588293
-0.0909713 -0.026252227 0.025850132 0.070572354 0.047968946 -0.07775369 0.05603048 0.17155409
0.17577088 0.2059747 0.124927595 -0.007030683 -0.050081283 -0.037170533 0.044087153 0.15377916
0.1013532 -0.113244064 0.09866859 -0.21124955 -0.14627835 -0.3038373 -0.19682822 -0.12481045
-0.0019697463 0.05304624 0.096822396 0.063246354 -0.04240034 0.14079359 0.036448 -0.16216055

bias f4 [16]
00000000: 4bd4 8f3d 058c 53bd 6e7d 9a3d 8ff3 ddbc
00000010: 15ca 20bc 752f ca3c 26f0 1c3d 7eab 09be
00000020: 1c3c 3fbd c252 10bd b2f4 733d cba1 803d
00000030: 8fb5 a4ba b793 f0bc 7378 293d c6e0 46bc
0.070229135 -0.051647205 0.07543455 -0.027093677 -0.009813805 0.024680832 0.03831496 -0.13444325
-0.046688184 -0.035235174 0.05955953 0.062808596 -0.0012566316 -0.02936731 0.041374635 -0.012138551

weight f4 [16, 16]
00000000: 7f2e 7c3e 2e49 babe f464 db3e cc17 35be
00000010: 82d7 2e3e 7fd4 ae3d 9147 01be 0de9 89be
00000020: f156 cc3d a0ae 1bbe d607 d53d 61a8 8e3e
00000030: dcd0 e3be 6554 4d3e de81 34be 59a8 81be
00000040: ac47 57be eb19 473d 8740 f6bc e274 3ebf
00000050: d032 c03e a5a2 183e 4bb8 d43c b76b a1be
00000060: 27b4 9e3e 903b 553d 1ff2 c7ba c251 52be
00000070: 79f2 8dbe ae79 cd3e c84d 2f3e c3fe 42bc
00000080: 191c 473e 869d e0be 6bf4 a8be 21c3 08be
00000090: 2e8a 353e fcb4 91be dc8e 223f 866f 533e
000000a0: 8239 a6bd c4ec b93d 79b0 8e3e 0445 223e
000000b0: 2244 9e3d 20c6 9c3d dc1a 9c3d 0eba 193e
000000c0: e6bf b93e ad6c 3cbe 2e11 01be facd 513e
000000d0: efdd d7bd 84d4 d4be 8724 603e 7af1 893c
000000e0: 42f9 9a3d 5bf1 853d 2106 d83e 162c 063e
000000f0: 9c13 f33d 4920 e8bd 08be a7be 9b46 e13d
00000100: 0d80 64bd 25b9 0c3e e76d 7dbd e533 123e
00000110: 7bd6 38be 3eb7 f8bc b89b 233d 6d5b 4bbc
00000120: 83ca 683e 223d 0c3f 087e e2bd d3ae acbe
00000130: 574f c33b 199c 733e d923 a0be 0ab2 0abe
00000140: b8b5 753b 6e21 7fbe 0a9d 45be 82cb 593d
00000150: efa5 03be 4757 0ebe 8a44 e93d efea 06bd
00000160: ebad c33d 7127 cc39 9c68 c23c e1ba 78be
00000170: 2d3d 573d 9572 1c3d 9d4d c53d 1280 0bbd
00000180: 9b26 5c3e 26b1 953e 301d 6ebe 8f68 b93e
00000190: ed77 023d fc3d 70be cd5a 8abd bf02 47be
000001a0: 6895 89be 6cf7 0cbd 28d0 a93d da71 52be
000001b0: 0a9f 573d e376 d4bd 1803 bbbd d40f aa3e
000001c0: 604f bdbe 2041 7a3e 6323 143d 2f70 76be
000001d0: 13ee a33e f7cf ca3b 8a30 cfbe 5a0c 4f3e
000001e0: d8ef 53be 1972 933e 3a40 c83d 050f d93e
000001f0: f1fa d5bd dad2 e5bd f262 b13c 5f16 79be
00000200: 0162 d7bc b2f9 4f3c c413 19be af26 553d
00000210: d0bc 5a3e 8562 28be 6cfd 353e 489d c63e
00000220: 9dc1 ff3e c1f1 d2bd a871 bebe cb6d 243d
00000230: 09c5 04be fcd6 10be 0759 febc d15b 39bd
00000240: ed16 c43e 9d4b 11be 21ad bdbe 4c36 0c3e
00000250: 2567 803e f426 f5be 780f d23e 616c e1bd
00000260: 11fc 88be 8247 ab3d f3bb 373d fd63 803b
00000270: 0183 073e c024 013e 883e c6bc 8fb9 ca3b
00000280: 5bd2 063d f6d1 e63c ec83 b03d 8955 2e3e
00000290: 8ecb 8fbe bdc0 2b3d 1731 4a3e c9de 353e
000002a0: 9dda 343e 5cdc c53c 5a88 a03e 1294 9e3c
000002b0: 9486 17bf e518 58be 0152 55be 4a7b 34bc
000002c0: 267f 89be f931 82be 3489 613c a7a3 1e3e
000002d0: e1fd 033e 6fc7 073e 6024 7f3e 8e53 353e
000002e0: 19df bb3d 04ce 363e 90fe bbbd 7abd 1dbe
000002f0: ee05 aabd 8172 8a3d ba75 8c3c 34fe a3bb
00000300: bb40 c13d 85ad b9be d57e 14b9 b99e 38be
00000310: 45cc 6dbd 93bf 413c 5201 073b 149b 393d
00000320: 2caf cc3e 60da f33d 2359 433e 96f6 993e
00000330: 12dc 0ebf 9065 3ebe e6b5 89be fbf4 58be
00000340: 5aa6 743e e51c 0a3e c22d aebe 19c7 84be
00000350: 2bec 36be 0cbc 70bd e799 0a3e f125 e83e
00000360: 6084 953e f541 c73e a8f0 1fbe e4b7 eabd
00000370: 3643 66be dd67 9ebd 17a6 c13d b6a7 33be
00000380: 7ac0 153e fa6f 3d3d cbbd dbbe 60ee 7ebe
00000390: 76a3 80be d5f6 28be 11f9 df3d 3c5a d33e
000003a0: 3d05 6f3e 440e f73e 7439 90be 543f 9ebe
000003b0: 337c abbe 74f5 333d 704d 1dbc 7078 3bbe
000003c0: 9f39 74bd a0e2 a73e bdc6 98be 62eb 693e
000003d0: fcbe b7bd 1e6e b2be 9a96 0f3d a654 d03e
000003e0: 22ff f63e c1cb 39bc 83d0 f8bd 96d6 5dbe
000003f0: c473 b8be 3711 c73d 1859 40be fe73 cf3a
0.24627112 -0.36383957 0.4285046 -0.17684859 0.17074397 0.08536624 -0.12624957 -0.26935616
0.0997752 -0.15203333 0.10401885 0.27862838 -0.44495285 0.20051725 -0.17627665 -0.25323752
-0.21023434 0.0486087 -0.030060066 -0.743971 0.37538767 0.14905794 0.025966784 -0.31527492
0.3099682 0.052058756 -0.0015254653 -0.20539 -0.27724054 0.40131897 0.17119515 -0.01190156
0.19444312 -0.4387018 -0.32998976 -0.13355686 0.17728493 -0.28458393 0.63499236 0.20648012
-0.081164375 0.090783626 0.27869013 0.1584664 0.07727839 0.07654977 0.076223105 0.1501238
0.3627922 -0.18400832 -0.1260421 0.2048873 -0.10540377 -0.41568387 0.21888934 0.016838778
0.075670734 0.065401755 0.42192176 0.13102755 0.118689746 -0.11334283 -0.3276217 0.10999795
-0.05578618 0.13742502 -0.06187239 0.14277609 -0.18050568 -0.030360814 0.039943427 -0.012411934
0.22733502 0.5478078 -0.11059195 -0.3372713 0.005960386 0.23790015 -0.3127735 -0.13544479
0.0037492346 -0.24915096 -0.19298187 0.053172596 -0.12856267 -0.13900481 0.11390026 -0.032938894
0.095546566 0.00038939298 0.023731522 -0.24290039 0.052548576 0.03819521 0.09633944 -0.034057684
0.21499102 0.29236716 -0.23253322 0.36212584 0.03185265 -0.23461145 -0.067556 -0.19434641
-0.268718 -0.034415647 0.08291656 -0.20551243 0.052641906 -0.10374238 -0.091314495 0.332152
-0.3697462 0.24438906 0.03616656 -0.24066232 0.32017574 0.006189342 -0.4046672 0.20219555
-0.20696962 0.28797987 0.09777875 0.42394271 -0.10448254 -0.11221857 0.021653626 -0.2432494
-0.02629185 0.012693809 -0.14948946 0.052038845 0.21361089 -0.16443832 0.17772454 0.3879187
0.49952403 -0.10300017 -0.37196088 0.04014377 -0.12965788 -0.1414451 -0.03104831 -0.04525358
0.3829874 -0.14189 -0.3704615 0.13692588 0.25078693 -0.4788128 0.41027427 -0.11007
-0.2675481 0.083632484 0.044856977 0.0039181695 0.13233568 0.12611675 -0.02419974 0.006186671
0.032915454 0.028176289 0.08618912 0.17024817 -0.28084987 0.041931856 0.19745289 0.17760767
0.1766152 0.024152927 0.31354028 0.019357715 -0.59189725 -0.21103247 -0.20832063 -0.0110157225
-0.2685482 -0.2542875 0.013765622 0.15492116 0.12889816 0.13259672 0.2491622 0.17707655
0.09173412 0.17852026 -0.09179413 -0.15404311 -0.08301912 0.06760121 0.01714598 -0.0050046686
0.094361745 -0.36265197 -0.00014161628 -0.18029298 -0.058056135 0.01182546 0.0020600152 0.04531391
0.39977396 0.11906886 0.19076972 0.30070943 -0.5580455 -0.1859343 -0.2689659 -0.21187203
0.23891583 0.13487585 -0.34019285 -0.2593315 -0.17863528 -0.058773085 0.13535272 0.45341447
0.29202557 0.3891751 -0.15619147 -0.114608556 -0.22486576 -0.07734654 0.09455507 -0.17544445
0.14624205 0.046249367 -0.42918238 -0.2489562 -0.2512471 -0.16500409 0.109361775 0.4127978
0.23341842 0.4825307 -0.28168833 -0.3090769 -0.33493194 0.043935254 -0.009600982 -0.18307662
-0.059625264 0.3279009 -0.29839125 0.22843698 -0.08971974 -0.34849638 0.035055734 0.40689582
0.48241526 -0.011340083 -0.121491455 -0.2166389 -0.36025822 0.0972008 -0.18783987 0.0015827415

bias f4 [16]
00000000: 35fe b7bd 25d1 4dbe bf7c 5dbe d34d 70be
00000010: c757 153e 44aa 2abe 5040 1e3e 4bd0 d23d
00000020: e49b 9cbe c803 84be fd5a 0a3d 1889 bfbd
00000030: 0020 543e 75b7 5ebe dabf 43be c0c7 afbc
-0.08984033 -0.20099314 -0.21629618 -0.23467188 0.14584266 -0.16666514 0.15454221 0.10293635
-0.30587685 -0.25784135 0.03377818 -0.093523204 0.20715332 -0.21749671 -0.19116154 -0.021457553

weight f4 [16, 16]
00000000: 663e a2bd 32e8 c9be 8cd3 0c3e c630 603e
00000010: 4c6f e0bd 4741 003d f288 0ebe 0faa 9a3d
00000020: 1485 de3d 3db5 523d 9a3c 863e 9e14 f0bd
00000030: 5ada 3e3e 088a 35be f71e a3bd 0358 d53d
00000040: 85e9 803d 440f 433d e36c 723e 06e6 123e
00000050: f30a 16bd 4c48 ac3d 796f 69be 8720 653e
00000060: 2cf5 82bd a153 b6bc 6652 eebd ac6b 07be
00000070: 6bc3 8dbe 6da2 57be 12d2 39bd dc5f a3be
00000080: abbc 88bd b6c9 68be 5f90 163e 4acb 31be
00000090: cb89 dabc 35c2 6d3e 15ea 6f3e d918 e2bd
000000a0: 41ea cc3e c590 9f3e 07ea 81bd 61be e33d
000000b0: 927d d83e d8ca 023e 71e8 5a3d 59f8 c23e
000000c0: b033 e73d 9306 b23d 08c1 0cbd 08d7 06bd
000000d0: 316b b0be d0f3 02be 14ef 613e 51dc a73d
000000e0: a558 053d f7d8 033d 7afe 813e e4bb f13d
000000f0: 989a bd3d 6905 99be 990f 563d f35e 673d
00000100: 1141 ff3a 6097 f2bb f498 acbe 9cfc 88be
00000110: 45ec a6bc 6442 443d 7731 583e 527a afbd
00000120: 1cc1 573e 0dbb 3d3d ddf9 463e 03a0 8dbe
00000130: 2526 2c3e 0c70 d93e f861 1a3f effa 073f
00000140: 603d 5d3d 0894 98be dd3b 153e b0f3 443e
00000150: 0b03 0b3e 6074 603e 0704 bcbd b042 68be
00000160: 2f95 14be b22b b23e 3905 613e b0ac 173d
00000170: 98a4 a23e 34cd 9e3d f29b 3e3c 1c6f 70bd
00000180: 97a3 32bd 3c5a 4d3d 652a c7bd da33 8abd
00000190: 62a1 76bd 12f8 75be 3fcf 783e c456 6a3e
000001a0: 3590 69be 55e0 8a3e a273 ccbc d4f2 82be
000001b0: 5981 743d 8b4f c6be 5501 5dbe b0ae 31be
000001c0: 72e8 bcbe 6f91 833e 96b0 ecbe 48c1 a6be
000001d0: 9f29 97bd 7d01 823d 1198 bebe 2eb3 04be
000001e0: c0c0 b0bd 3616 50bd 54c9 e7be 63ca 843d
000001f0: bae5 1bbf 8aa7 da3d 45db 163e 94db b83d
00000200: 4f13 103f 6faa d6be 9ef6 0d3e 0efd 09be
00000210: d038 66be b954 99be 9f19 21be a523 a53e
00000220: 48ed 59be bc8f 2e3e bdc6 eb3d 4c83 7ebe
00000230: 067d b83e 5de1 0fbd ad81 0b3e 774a 833e
00000240: 955d ca3d 2503 b83e 0756 aabe ae53 0cbe
00000250: 3625 fb3b a2f4 cebd 243a 903e 3431 373e
00000260: 3bc8 c2bd d0a0 1dbf d5e4 913e eb3d 25be
00000270: 307d 18be 9e03 e0bd 045b 293e 3701 5bbc
00000280: 803e 35be 15b6 8a3e 884b ffbd 1e8d 2dbe
00000290: 7c56 aa3e 1dad 6c3d 3b52 29bc 5a8f debd
000002a0: 5155 aebe 8f98 92bc d5f3 3a3e 1334 69bd
000002b0: 01ec 743e 4047 743e b564 003d 9104 a3be
000002c0: d03d 8dbe 5985 c0be 56cb 293e 5fc7 00be
000002d0: 798a 853d d5be 74bc 080c 88be 4d26 aebc
000002e0: 0ccf 183e ea81 6b3e c102 bd3d 7e76 e63c
000002f0: fda5 da3c 2565 1cbe 93b3 9fbe 7731 603e
00000300: 6c10 e6bc a85f 0d3e 6619 b33e 08a1 29be
00000310: aafa 543d 3351 be3d 9a65 85be b44f b93d
00000320: 994c 7ebe 241e 393e eb4e c13d a986 753e
00000330: 5345 00be 9f78 a0be 2a0b 25be ca6b 7dbe
00000340: aee5 cd3b 7c2b c63e 805d 70be b31d 29bb
00000350: 226e 473e 9f48 80bc 9e97 73be a96c 19be
00000360: 5def 993d 17ce b6be 0673 78be f1b1 d3be
00000370: 451c 9abe f17c 993e a671 e23e dde8 d83e
00000380: c63b c2be 4ba5 dabe 47ed 253e 63c0 d43e
00000390: 19cb a5be 0d5c 253e 42a7 2dbd 30b1 953e
000003a0: 2451 153e 6ffb 933e 9c75 98bb 0341 b7bd
000003b0: 4a7f 63be eb44 02be 5758 01bf c763 d6be
000003c0: c5f8 45bd 2844 bb3e 1bd6 1d3c c228 32ba
000003d0: 936e 5c3e 66b4 89bd 6e05 09be 1470 9fbe
000003e0: f25c fcbd 9310 eabd 46a3 2abc 9ec8 c0bc
000003f0: 3606 ce3d ccb5 fcbb cbe7 113e 24c0 0f3c
-0.07922058 -0.39434963 0.13752574 0.21893606 -0.10958728 0.031312253 -0.13919428 0.07551967
0.108652264 0.051442374 0.2621811 -0.117226824 0.18637982 -0.17728436 -0.079648905 0.104171775
0.0629454 0.04762198 0.2367435 0.1434556 -0.036631536 0.08412227 -0.2279643 0.2237569
-0.06394419 -0.022256674 -0.1163681 -0.13224667 -0.27688155 -0.21058054 -0.045366354 -0.31909072
-0.066766106 -0.22733197 0.1470351 -0.17362705 -0.026677033 0.23218615 0.23429139 -0.110398956
0.40022472 0.31165138 -0.06343465 0.11120296 0.42283303 0.12772691 0.05344433 0.380801
0.112891555 0.0869266 -0.034363776 -0.032919914 -0.3445678 -0.1278832 0.22063857 0.08196319
0.03255524 0.032189336 0.25389463 0.118034154 0.09258002 -0.2988694 0.05226097 0.056487035
0.0019474347 -0.007403299 -0.33710444 -0.26755226 -0.020376334 0.047914878 0.2111262 -0.085682526
0.21069759 0.046320964 0.19431253 -0.27661142 0.16811426 0.42468297 0.6030574 0.5311727
0.05401361 -0.2980044 0.14573617 0.19233584 0.1357538 0.21919394 -0.09180456 -0.2268169
-0.14510034 0.34798962 0.21974649 0.037029922 0.317662 0.07753983 0.01163386 -0.058699712
-0.043613043 0.050134882 -0.09724883 -0.06748171 -0.0602125 -0.24020413 0.24297808 0.22884661
-0.22808917 0.27124277 -0.024957482 -0.25575888 0.059693668 -0.3873256 -0.2158254 -0.17351794
-0.36896092 0.25696895 -0.46228474 -0.32569337 -0.073809855 0.0634794 -0.37225392 -0.12958977
-0.08630514 -0.050802432 -0.4527079 0.06483915 -0.6089741 0.10676487 0.14732082 0.09026256
0.5627946 -0.41926906 0.13863608 -0.13475439 -0.2248261 -0.2994745 -0.1573243 0.32253757
-0.21281922 0.17047018 0.11512516 -0.24854773 0.36032885 -0.035127033 0.13623686 0.2564275
0.098811306 0.359399 -0.3326876 -0.13703796 0.007664348 -0.10105254 0.28169358 0.17889863
-0.09510847 -0.61573505 0.28494897 -0.16136901 -0.14891505 -0.1093819 0.16538626 -0.013366989
-0.17699623 0.27092043 -0.12465578 -0.16948363 0.33269107 0.05778228 -0.010334547 -0.10867186
-0.34049466 -0.017895011 0.18257077 -0.056934427 0.23918153 0.23855305 0.03134604 -0.3183942
-0.27586222 -0.37601736 0.16581473 -0.12576054 0.06520552 -0.014938076 -0.2657168 -0.021258498
0.14922732 0.22998777 0.09229041 0.028132673 0.026690478 -0.15272959 -0.31191692 0.2189387
-0.028084002 0.13806021 0.34980315 -0.16565335 0.051996864 0.09292831 -0.26054078 0.09048405
-0.24833907 0.18077904 0.094388805 0.2397715 -0.12526445 -0.31342027 -0.1611754 -0.2474815
0.0062834835 0.3870505 -0.23473167 -0.0025805056 0.19475606 -0.015659628 -0.23788306 -0.14982857
0.07516358 -0.3570411 -0.24262628 -0.41346696 -0.30099693 0.29978135 0.44227332 0.4236516
-0.3793623 -0.42704234 0.16203795 0.4155303 -0.32381514 0.16148396 -0.042395838 0.29236746
0.14581734 0.28902766 -0.004652692 -0.08947947 -0.22216526 -0.12721603 -0.5052542 -0.41873
-0.04833295 0.36575437 0.009633566 -0.00067962345 0.21526556 -0.067238614 -0.13380978 -0.31140196
-0.123224154 -0.114289425 -0.010414904 -0.023533162 0.100597784 -0.0077121016 0.14248578 0.008773837

bias f4 [16]
00000000: 6364 b3bd 389c 0a3e 5d10 efbd 320c 343e
00000010: 2b89 5fbe 56a2 173e f6fe b0bd 49bf 483e
00000020: f59f 86be 3586 513c d50b d93d cacb 603e
00000030: 9c4d bf3b c79b 213e 9e25 9bbd 7d51 52be
-0.087593816 0.13536155 -0.11673043 0.17582777 -0.21829669 0.1480802 -0.0864238 0.1960422
-0.26293913 0.012788345 0.1059796 0.2195274 0.005838109 0.1578208 -0.07575534 -0.20538898

weight f4 [16]
00000000: 8a98 5c3f 8a10 5b3f fd5c 643f d8ce a03f
00000010: 44a8 843f 4268 803f daf8 813f 6600 923f
00000020: 1c9f 883f e8ef 783f ad00 883f 0a59 873f
00000030: 784d 8c3f bf3c 803f 1f28 883f 5c39 873f
0.86170256 0.8557211 0.8920439 1.2563124 1.036385 1.0031817 1.0154068 1.1406372
1.0673556 0.9724107 1.0625206 1.0574048 1.0961142 1.0018538 1.0637244 1.056438

bias f4 [16]
00000000: a25f c53c ce4b 1ebd a172 3e3d f852 083c
00000010: 39af 053d bd07 953c 47cc 82bc a112 71bd
00000020: 570d 90bc 2cfa 153d 56fa bebc 51e5 663b
00000030: a811 20bd fe9c c93c 9966 d23b b868 d73a
0.024093453 -0.03864651 0.046496037 0.008320563 0.03263781 0.018192166 -0.015966548 -0.058855657
-0.017584486 0.036615536 -0.023312729 0.0035231898 -0.03907934 0.024610993 0.006420922 0.0016434407

weight f4 [16]
00000000: 4137 463f 3ca6 283f 36ea 583f 8402 913f
00000010: 2426 853f d5ac 7b3f 213c 613f 12ee 8b3f
00000020: 95b1 813f 04d3 503f d182 883f 8dc4 7b3f
00000030: 1b62 853f 1882 8d3f cc77 8f3f a0c9 843f
0.7742806 0.65878654 0.8473238 1.1328893 1.0402265 0.98310596 0.87982374 1.0932028
1.0132319 0.81571984 1.0664922 0.9834679 1.0420564 1.1055326 1.1208434 1.0374031

bias f4 [16]
00000000: 8d59 0a3c 5145 2bbd e172 cebc 6366 9b3d
00000010: 094d 113c 91a8 3c3c 1a3a 013c 6ac4 e7bc
00000020: c52b 86bd d73d a73d c0f0 d53b 1dd6 67bc
00000030: da76 91bb a68c 4cbd 8fd6 353d 8ee0 de3b
0.008444202 -0.041814152 -0.025201263 0.07587888 0.008868464 0.011514799 0.007887388 -0.0282919
-0.06551317 0.08166092 0.006528944 -0.01415017 -0.004439217 -0.04993882 0.044394072 0.0068016713

weight f4 [16]
00000000: 56f6 8f3f edc6 673f ecf0 763f d517 573f
00000010: b383 953f 0ff9 883f 80a6 853f aecd a43f
00000020: d0b8 6e3f 8ca5 853f 0193 9f3f a368 913f
00000030: d965 8e3f 6350 8c3f 53e7 883f 6b7c a33f
1.1247051 0.9053791 0.9646137 0.8402074 1.1680816 1.0701007 1.0441437 1.2875268
0.9325075 1.0441146 1.2466737 1.1360058 1.1124831 1.0962032 1.0695595 1.2772344
