exp/original_exp/MSP_stoi_gmm/best_va_result.pt (torch, 57452 bytes, 22 tensors)

weight f4 [16, 512]
0	0x3de42985	0.11140732
1	0xbeb05760	-0.34441662
2	0x3d740c4d	0.059582043
3	0x3d8a3550	0.0674845
4	0x3d504599	0.050847623
5	0xbdff01de	-0.12451528
6	0xbd18732d	-0.037219215
7	0x3e1623b0	0.14662051
8	0xba9237cf	-0.0011155548
9	0x3e4bc6f3	0.19900112
10	0x3defecbd	0.11715076
11	0x3db413c9	0.08792836
12	0xbe9f5fec	-0.3112787
13	0xbd128062	-0.035766967
14	0xbdc117a6	-0.09428339
15	0x3c732854	0.014841158
16	0xbe3f26ff	-0.1866722
17	0xbe613619	-0.21993293
18	0xbe4d5363	-0.20051341
19	0xbdc3a542	-0.09553005
20	0x3c80702b	0.015678486
21	0xbe54131e	-0.20710418
22	0x3e3f9127	0.18707715
23	0xbb70455b	-0.0036662433
24	0xbe3aff3e	-0.1826143
25	0xbe381514	-0.1797679
26	0xbcaa0153	-0.020752585
27	0x3e141471	0.14460923
28	0xbe9efbaf	-0.31051394
29	0x3e1e84df	0.15480374
30	0xbe102f55	-0.14080556
31	0xbc0f5f7f	-0.008750795
32	0x3d165343	0.0367005
33	0xbe110250	-0.14161038
34	0xbe4f2570	-0.20229125
35	0xbd7b0bbd	-0.06129049
36	0x3e6d2fa0	0.23162699
37	0x3db4b344	0.08823255
38	0xbe39dd36	-0.18150792
39	0x3e2bffd5	0.16796811
40	0x3cbebb7b	0.023282757
41	0xbec3734c	-0.38173902
42	0x3df523a3	0.11969688
43	0xbda7c8cc	-0.08192596
44	0x3d7cb5da	0.061696865
45	0x3987a86a	0.00025874685
46	0x3d11e6db	0.03562055
47	0x3dd2d718	0.10294932
48	0x3da9feeb	0.08300575
49	0xbd70cc3f	-0.058788534
50	0xbdd57e9a	-0.10424538
51	0x3d766b32	0.060160823
52	0xbcc96715	-0.024585286
53	0x3dc749f7	0.097309045
54	0xbc8e155e	-0.017344173
55	0x3dca1e10	0.09869015
56	0x3e5bb884	0.21457106
57	0xbe35b365	-0.17744215
58	0x3c974c2d	0.01846894
59	0xbd2280b8	-0.039673537
60	0x3de681f9	0.11255259
61	0x3d9e9f08	0.077451766
62	0xbe9fee67	-0.31236574
63	0xbd0737a6	-0.033012055
64	0x3d843418	0.064552486
65	0xbe8c7b64	-0.2743789
66	0xbdfb6afb	-0.12276264
67	0xbe36672f	-0.17812799
68	0x3d35f4c2	0.044422872
69	0xbdb6011d	-0.08886931
70	0x3cd1213a	0.025528539
71	0x3d4c7680	0.049917698
72	0x3e4ed719	0.2019924
73	0x3eb1da97	0.34737083
74	0xbd84ec1b	-0.06490346
75	0x3c3e4a8f	0.011614456
76	0xbdfcf4e2	-0.12351395
77	0xbd0c9777	-0.034324136
78	0xbd940d1d	-0.07229064
79	0x3e317cac	0.17332715
80	0xbda77807	-0.0817719
81	0x3bc49575	0.005999262
82	0x3d4b760d	0.04967313
83	0x3e4e5452	0.20149353
84	0x3c9d7886	0.01922251
85	0xbe369b60	-0.17832708
86	0xbeb7e6dd	-0.35918322
87	0xbe848049	-0.25879124
88	0x3db1f11f	0.08688568
89	0xbdd57c6e	-0.10424124
90	0x3c01d0f2	0.007923352
91	0xbb222fe5	-0.0024747786
92	0x3d7a3fab	0.061095875
93	0xbda18fae	-0.07888733
94	0x3e938fcf	0.28820655
95	0xbe01aa0d	-0.12662525
96	0xbd304dd0	-0.043042958
97	0xbd6da9e9	-0.058023367
98	0x3dc3c0c8	0.095582545
99	0x3ba86b43	0.0051397397
100	0x3dca9b09	0.09892852
101	0x3dcc30ea	0.09970267
102	0xbd1f510e	-0.03889566
103	0x3e8d2fac	0.27575433
104	0xbe0271b8	-0.12738693
105	0xbe5ccd7e	-0.21562764
106	0x3d61e4b3	0.055149745
107	0x3e19a50f	0.15004371
108	0xbe116ef1	-0.14202477
109	0x3d9d4660	0.076794386
110	0x3de083ca	0.10962637
111	0x3d4fc085	0.05072071
112	0xbe069c6f	-0.13145612
113	0xbdde1c90	-0.108452916
114	0x3e59197c	0.21201128
115	0xbd22cb2b	-0.039744537
116	0x3b912ee0	0.0044306368
117	0x3e19507e	0.14972112
118	0xbd0f727c	-0.03502129
119	0x3c0e3836	0.008680394
120	0xbe0a05f5	-0.13478835
121	0x3d0a93fc	0.033832535
122	0x3e678d6f	0.22612546
123	0x3e338678	0.17531765
124	0xbe5494da	-0.20759907
125	0xbe0de7b1	-0.13857915
126	0x3d3e6d26	0.04649081
127	0xbdc3200f	-0.09527599
128	0xbbec728d	-0.007215804
129	0x3df57d0e	0.11986743
130	0xbde47432	-0.11154975
131	0xbd8bd1a3	-0.068270944
132	0xbd6851a6	-0.05671849
133	0xb8de8688	-0.00010610843
134	0x3bb2b12d	0.00545325
135	0xbb2bc565	-0.0026210186
136	0xbe4ec65f	-0.2019286
137	0x3e058950	0.13040662
138	0xbe7128b5	-0.23550685
139	0xbde07909	-0.109605856
140	0x3e09feb1	0.13476063
141	0xbd926fb5	-0.07150213
142	0x3d8bcfc6	0.06826739
143	0x3e9b0273	0.30275306
144	0xbe755f44	-0.23962122
145	0xbde6c50b	-0.11268052
146	0xbd169df8	-0.036771744
147	0x3e8e2713	0.27764186
148	0x3e1b1edb	0.15148489
149	0x3e24c279	0.1608981
150	0xbc90daa6	-0.017682385
151	0xbd3e17fb	-0.04640959
152	0xbcd75471	-0.026285382
153	0x3e0a7674	0.13521749
154	0x3d28df22	0.04122842
155	0xbe4a1d96	-0.19737849
156	0xbdee4b86	-0.11635499
157	0xbf011f83	-0.5043871
158	0x3e0fee31	0.14055707
159	0xbe8deca0	-0.27719593
160	0x3e03ce48	0.12871659
161	0x3dda52d4	0.106603295
162	0x3ec7a067	0.38989565
163	0xbd53e7e7	-0.05173483
164	0xbd1e1d4d	-0.038602162
165	0xbb048c58	-0.0020225253
166	0x3cc67567	0.024225904
167	0x3e055ae0	0.13022947
168	0x3cbd4823	0.023105687
169	0x3e52b5c0	0.20577145
170	0xbd9e4b9f	-0.07729267
171	0x3d2ef969	0.042718325
172	0xbecc2a77	-0.39876148
173	0xbc88cb3a	-0.016698468
174	0xbe41ec10	-0.18937707
175	0x3c809f63	0.015701002
176	0x3e191f89	0.14953436
177	0xbcd4c14b	-0.025971076
178	0xbe7e3a5a	-0.24826947
179	0x3b5a5113	0.0033312484
180	0x3d0a326f	0.033739503
181	0x3d4b9962	0.049706824
182	0xbda4346b	-0.080178104
183	0xbda708b7	-0.08155959
184	0x3d2f36e9	0.042776976
185	0x3c1b65c3	0.009484711
186	0xbb8cfe0a	-0.0043027448
187	0x3d04f586	0.032460712
188	0x3da39f45	0.079893626
189	0xbe05d1e5	-0.1306835
190	0x3e84e2da	0.25954324
191	0xbdc0b750	-0.09409964
192	0xbe2b5990	-0.16733384
193	0x3e074829	0.1321112
194	0x3e824c8d	0.2544903
195	0xbe4d5ab4	-0.20054132
196	0xbca25500	-0.019815922
197	0x3dac34c9	0.084085055
198	0x3cee105c	0.029060535
199	0xbdc93c16	-0.098259136
200	0xbaef5e1c	-0.00182623
201	0xbd17a109	-0.03701881
202	0xbd83fbce	-0.06444512
203	0xbdc1a965	-0.094561376
204	0xbd91b17f	-0.07113933
205	0xbcb3e33b	-0.021958938
206	0x3e9147da	0.2837513
207	0x3e1e4d9e	0.15459296
208	0x3d5f1697	0.054464903
209	0x3dc7d080	0.09756565
210	0xbe3488c9	-0.17630304
211	0xbd464eb1	-0.04841489
212	0x3e655102	0.22394183
213	0xbbe50214	-0.006988773
214	0x3d0c5e23	0.034269463
215	0xbcff537e	-0.031167742
216	0x3d86e883	0.06587317
217	0xbe16edd8	-0.14739168
218	0xbd465db1	-0.048429195
219	0x3cf4a6c8	0.029864684
220	0x3def72b2	0.11691798
221	0x3d4604e9	0.048344526
222	0xbeb605b4	-0.35551226
223	0x3dfd1c84	0.123589545
224	0xbe2337ba	-0.15939227
225	0x3df13cf2	0.117792025
226	0xbe4c514f	-0.19952892
227	0x3df5833a	0.1198792
228	0x3e088e24	0.13335472
229	0xbee676d2	-0.45012528
230	0x3de18c64	0.110131055
231	0x3e9090be	0.2823543
232	0xbdd71d22	-0.105036035
233	0x3df19d5d	0.11797593
234	0xbcbdb628	-0.023158148
235	0xbc814835	-0.015781501
236	0xbc84d51e	-0.016214903
237	0x3d6778e5	0.05651178
238	0x3d9d0c36	0.07668345
239	0xbe921cb0	-0.28537512
240	0xbdc363eb	-0.09540542
241	0x3e0ce584	0.13759428
242	0xbdcc9691	-0.09989656
243	0x3d2b9673	0.041891526
244	0xbe34b6fc	-0.17647928
245	0xbd442366	-0.04788532
246	0x3d0dd22e	0.03462427
247	0xbd89368d	-0.06699858
248	0xbc7f51a4	-0.0155834295
249	0x3d149b60	0.03628099
250	0x3db04881	0.08607579
251	0xbdddee3f	-0.108364575
252	0x3cf1ec32	0.029531572
253	0xbd8e5a78	-0.06950849
254	0x3bcc5ec5	0.0062368833
255	0x3c3cff4c	0.011535477

bias f4 [16]
0	0xbd217f06	-0.03942778
1	0x3d7780d8	0.06042561
2	0xbcc77406	-0.024347316
3	0x3dc4c66b	0.09608158
4	0x3beb72e4	0.007185327
5	0xbc739d3e	-0.014869032
6	0xbc6e54db	-0.014546598
7	0x3cd96216	0.026536029
8	0x3c6d9a37	0.0145021
9	0x3aadf8d6	0.0013273011
10	0x3c9c06bc	0.01904618
11	0x3a9022a7	0.0010996655
12	0x3cff7660	0.031184375
13	0xbbc1b553	-0.005911508
14	0x3ca34c1e	0.019933756
15	0x3d202ac2	0.039103277

weight_ih_l0 f4 [48, 16]
0	0xbe3598cd	-0.1773407
1	0xbea4eff0	-0.32214308
2	0xbce39d62	-0.027785007
3	0xbc828180	-0.015930891
4	0x3bb6556a	0.0055643814
5	0x3ca72c40	0.020406842
6	0xbc9d76a8	-0.019221619
7	0xbde3c636	-0.1112179
8	0x3e5dbb9d	0.216536
9	0x3e66d3c3	0.22541718
10	0xbe7c200b	-0.24621598
11	0xbd04f70a	-0.032462157
12	0x3e82f309	0.25576046
13	0xbe75e306	-0.24012384
14	0xbe67ad63	-0.22624736
15	0x3ea8a278	0.32936454
16	0x3e864063	0.26220998
17	0xbbb3469d	-0.0054710642
18	0xbdb96ba1	-0.09053732
19	0x3e27ecd0	0.1639893
20	0x3f132d77	0.5749125
21	0xbe588833	-0.21145706
22	0xbea54eda	-0.3228672
23	0x3e1d8ff0	0.15386939
24	0x3db29ba6	0.08721094
25	0x3d1fdfed	0.03903191
26	0x3ec3dac1	0.38252833
27	0xbe9570fe	-0.2918777
28	0xbec908de	-0.39264578
29	0x3cfa971f	0.030589638
30	0xbe86aa7b	-0.2630194
31	0xbd9aace7	-0.0755251
32	0x3be7dca8	0.007075865
33	0xbd1c3dc6	-0.03814485
34	0xbe85f088	-0.26160073
35	0x3e622812	0.22085598
36	0x3e492236	0.19641957
37	0xbe195e65	-0.14977415
38	0xbd90d9e5	-0.0707281
39	0xbe81075a	-0.2520092
40	0x3e5cc87f	0.21560858
41	0xbe8224e0	-0.25418758
42	0x3f0f0943	0.5587351
43	0x3eada4cd	0.33914796
44	0xbe2669ea	-0.1625134
45	0xbf0a92da	-0.5413033
46	0xbe9ef7bb	-0.31048378
47	0x3e5091ce	0.2036812
48	0xbd81b953	-0.06334176
49	0x3e239aef	0.15977071
50	0x3e856999	0.26057127
51	0xbebb2384	-0.36550534
52	0x3dc895e2	0.09794213
53	0x3ee9a17a	0.4563101
54	0x3d2abdb7	0.041684832
55	0x3e60f1dc	0.21967262
56	0xbdff12d2	-0.124547616
57	0x3d2f1395	0.042743284
58	0xbe13f058	-0.14447153
59	0xbe9e89d6	-0.30964535
60	0x3e3e5475	0.18586905
61	0xbe681915	-0.22665818
62	0xbea1e3c4	-0.31619084
63	0x3e653d2d	0.22386618
64	0xbd6b0655	-0.057379086
65	0xbe4ed1b3	-0.20197181
66	0xbe949140	-0.29017067
67	0xbeb88bf6	-0.36044282
68	0x3e521a89	0.20517935
69	0xbe266595	-0.16249688
70	0xbecf64c3	-0.40506563
71	0x3dc2af38	0.095060766
72	0x3e8bf805	0.2733766
73	0xbe8e353e	-0.27774996
74	0x3e930794	0.2871672
75	0x3ed784f0	0.4209361
76	0xbe64446a	-0.22291723
77	0xbeca9495	-0.39566484
78	0xbeeaaac3	-0.45833406
79	0x3d40af86	0.047042392
80	0x3ec4b1d3	0.3841692
81	0xbe7ff98b	-0.24997537
82	0xbe89b032	-0.2689224
83	0xbd021a8f	-0.03176361
84	0xbe9790a2	-0.29602534
85	0x3dfb9f4e	0.12286244
86	0x3e6941c9	0.22779001
87	0xbeceef67	-0.40417024
88	0x3d97a26b	0.07404026
89	0xbd87f7ae	-0.06639038
90	0xbdc94972	-0.09828462
91	0x3dacabc8	0.08431202
92	0x3e2efc97	0.17088543
93	0x3e28f5e9	0.16500057
94	0x3cd0c757	0.025485678
95	0x3ec0938d	0.37612572
96	0x3d27f644	0.04100634
97	0xbe6b35a8	-0.22969687
98	0xbec47163	-0.38367757
99	0xbdf516f5	-0.11967269
100	0x3e1550ae	0.14581558
101	0x3e613e5e	0.21996447
102	0xbd2cfbd7	-0.04223236
103	0xbce113bb	-0.027475229
104	0x3dc5a8a1	0.09651304
105	0xbcc8b892	-0.024502072
106	0xbd3ffaf2	-0.04687018
107	0xbea9c08d	-0.33154717
108	0x3e45aa29	0.19303192
109	0x3f09220f	0.53567594
110	0x3ecb8674	0.39751017
111	0x3d5d3906	0.05400946
112	0x3d900dce	0.07033883
113	0x3e66f5fb	0.22554772
114	0x3ece2a94	0.4026686
115	0xbe42b8ad	-0.1901576
116	0x3ebd840b	0.37014803
117	0xbdbf0e92	-0.09328951
118	0x3e6fc158	0.23413599
119	0x3e906176	0.28199357
120	0xbca2af3a	-0.019858945
121	0xbdb51dc6	-0.088435695
122	0x3ce816ab	0.028331121
123	0x3f102ff8	0.56323195
124	0xbbc3a6d1	-0.005970814
125	0x3ee149a4	0.44001496
126	0xbdad3d10	-0.084589124
127	0xbe65c6c6	-0.22439107
128	0xbd84ce2d	-0.064846374
129	0x3c40ac85	0.011759882
130	0x3d8f535a	0.0699832
131	0x3e9a19cc	0.30097806
132	0x3edec978	0.43513083
133	0xbe54b92e	-0.20773765
134	0xbd4afd79	-0.049558137
135	0x3e865f6c	0.26244676
136	0xbdb1ef07	-0.08688169
137	0xbeba498f	-0.36384246
138	0x3e1bfaf6	0.15232453
139	0x3dc38f0c	0.095487684
140	0xbdfefd2e	-0.12450634
141	0x3e0304b7	0.12794767
142	0xbe81d33b	-0.2535647
143	0x3e40a2f5	0.18812163
144	0x3d93f67f	0.0722475
145	0x3e58344b	0.21113698
146	0xbe18424e	-0.14869043
147	0x3e3570f0	0.17718863
148	0xbdfd0333	-0.12354126
149	0xbe0a1331	-0.13483883
150	0x3da8d419	0.082435794
151	0x3e7c7cec	0.24657029
152	0x3e325f48	0.1741916
153	0xbd985052	-0.07437195
154	0x3e3b4c05	0.18290718
155	0xbd0f9eee	-0.035063677
156	0x3e25cc1e	0.16191146
157	0x3e9d4abf	0.3072109
158	0xbe22a8ec	-0.15884751
159	0x3eb1243f	0.34597966
160	0x3e6afc7a	0.22947875
161	0xbea046a7	-0.31303903
162	0xbd5d7010	-0.05406195
163	0xbdb65f03	-0.08904841
164	0x3e3746ba	0.17898074
165	0xbea21b04	-0.31661236
166	0x3d3d7fea	0.046264566
167	0x3d8bba81	0.06822682
168	0x3eedec1d	0.46469203
169	0x3db3b25e	0.08774255
170	0xbc5d01ad	-0.013489169
171	0x3ea86954	0.3289286
172	0x3e16279c	0.14663547
173	0xbe290719	-0.16506614
174	0xbec27495	-0.3797957
175	0xbe84d5ad	-0.25944272
176	0xbcaff2cf	-0.021478085
177	0x3de0003e	0.10937546
178	0xbe5eab5e	-0.21745059
179	0xbd8428d7	-0.06453102
180	0xbb2b3ebe	-0.0026129927
181	0xbe4cf2aa	-0.20014444
182	0x3e90ffac	0.28320062
183	0x3e608124	0.21924263
184	0x3eeb8f01	0.4600754
185	0x3eaf6cb1	0.34262612
186	0xbd998e6b	-0.07497867
187	0x3e83b318	0.25722575
188	0xbdcf9bee	-0.10137163
189	0xbdc8d2c3	-0.098058246
190	0xbe89c156	-0.26905316
191	0x3ef01844	0.46893513
192	0x3e6efc78	0.23338497
193	0x3e5d625b	0.21619551
194	0xbc9a0fb6	-0.01880632
195	0x3d0c93f5	0.03432079
196	0x3d5b93f0	0.05360788
197	0x3d36399e	0.04448854
198	0xbdb15ee5	-0.08660678
199	0xbe11cdcf	-0.14238666
200	0xbe19fd7e	-0.15038106
201	0xbe83206b	-0.2561067
202	0xbeb23661	-0.34807113
203	0x3e52fc16	0.20603976
204	0xbdc0e1b7	-0.09418052
205	0x3f146bb7	0.5797686
206	0xbdc12875	-0.09431545
207	0xbe8e14a6	-0.27750129
208	0xbe3b1007	-0.18267833
209	0xbed52763	-0.41631612
210	0x3c86d3a5	0.016458342
211	0xbeab7e81	-0.33494952
212	0xbefb8e50	-0.49132013
213	0xbebd436d	-0.36965504
214	0x3e0f7be7	0.14012109
215	0xbe641859	-0.22274913
216	0xbd36e04e	-0.044647507
217	0x3e424a0a	0.18973556
218	0x3ea0b0da	0.31384927
219	0x3e9a067f	0.3008308
220	0xbd9411fc	-0.07229993
221	0xbeaf553e	-0.34244722
222	0xbe8961ab	-0.26832327
223	0xbddd653a	-0.10810323
224	0x3d649d92	0.055814333
225	0xbe7586c5	-0.23977192
226	0xbdf9ba00	-0.1219368
227	0xbee9b1d2	-0.4564348
228	0xbe9f75de	-0.31144613
229	0xbdbd424d	-0.092411615
230	0xbe536209	-0.20642866
231	0xbda32d83	-0.07967665
232	0xbd35588b	-0.044273894
233	0x3ec1bb46	0.3783819
234	0xbd9df081	-0.07711888
235	0xbee9a6f7	-0.45635197
236	0xbe81cb35	-0.25350347
237	0xbf088348	-0.5332532
238	0x3eaff29f	0.34364793
239	0x3d331047	0.043716695
240	0xbed2ae44	-0.4114858
241	0xbf13debd	-0.57761747
242	0x3ecc72ac	0.39931238
243	0xbe9ed2f3	-0.31020316
244	0x3e25d197	0.16193233
245	0xbd89e1c5	-0.06732515
246	0x3d6b4217	0.057436075
247	0x3e035739	0.12826242
248	0x3ecc8dcb	0.3995193
249	0xbeca275f	-0.39483163
250	0xbe4ae869	-0.1981522
251	0x3eb4202f	0.35180804
252	0x3d4f08ef	0.05054563
253	0xbea1de87	-0.31615087
254	0xbed21ef0	-0.41039228
255	0x3e8ff407	0.28115866

weight_hh_l0 f4 [48, 16]
0	0x3f01272e	0.5045041
1	0xbe842b40	-0.25814247
2	0x3e3b32a3	0.18281035
3	0x3ecf5762	0.40496355
4	0x3e817445	0.2528402
5	0x3ef8542b	0.48501715
6	0xbd4a2c3c	-0.04935859
7	0x3d9bc092	0.07605089
8	0x3daa3710	0.083112836
9	0x3cbceb63	0.02306146
10	0x3e6adb70	0.22935271
11	0xbdb7c61b	-0.089733325
12	0x3bf6c83a	0.007531193
13	0xbd016c47	-0.031597402
14	0x3d9299a1	0.07158209
15	0x3e8a2b4e	0.26986164
16	0xbebbfbc9	-0.36715534
17	0x3c26518b	0.010151277
18	0xbf1fc79b	-0.6241395
19	0xbeb617ab	-0.35564932
20	0x3b0de5d7	0.0021651888
21	0x3d967b4c	0.07347736
22	0x3cde2b0c	0.027120136
23	0x3d099edb	0.033598762
24	0x3e61bd06	0.22044763
25	0xbab2852b	-0.0013620009
26	0x3de98026	0.114013955
27	0x3d97c961	0.07411457
28	0xbe065552	-0.13118485
29	0xbeb6e1d8	-0.3571918
30	0x3e3c4d74	0.18388921
31	0xbcbbc7a0	-0.022922337
32	0xbdf772e8	-0.120824635
33	0x3e8c6895	0.2742354
34	0xbd179a5a	-0.037012435
35	0xbe2179e5	-0.15769155
36	0x3e881105	0.26575485
37	0x3dcd3a65	0.100209035
38	0x3e3a86d0	0.1821549
39	0xbcc91257	-0.024544878
40	0xbdee5a89	-0.11638362
41	0xbe5d454d	-0.21608467
42	0xbe26ff83	-0.16308407
43	0xbdeea210	-0.11652005
44	0xbe2613e3	-0.16218524
45	0x3e8602fd	0.26174155
46	0x3ddac9b2	0.106830016
47	0xbe40b8b8	-0.18820465
48	0x3b8c6a72	0.00428515
49	0xbc173561	-0.009229035
50	0x3e5b9958	0.21445215
51	0x3e339d90	0.17540574
52	0x3e292f8f	0.16522048
53	0xbe415012	-0.188782
54	0xbe4ed623	-0.20198874
55	0x3e923186	0.28553408
56	0xbd6cfd41	-0.05785871
57	0xbe07f985	-0.13278778
58	0x3e5c2899	0.21499862
59	0x3dc72345	0.09723524
60	0xbd7cc0c7	-0.061707284
61	0x3dae61a6	0.08514719
62	0xbdc7fc1b	-0.09764882
63	0xbc03d7f8	-0.008047096
64	0x3e7636ee	0.24044392
65	0xbc13a1b7	-0.009010724
66	0xbefa3fe6	-0.48876876
67	0x3e33dd51	0.17564894
68	0x3de34b73	0.11098375
69	0x3e186fe0	0.14886427
70	0xbd96b3bd	-0.07358501
71	0x3f4e6364	0.8062041
72	0xbe4208dc	-0.18948692
73	0xbd8d1677	-0.068890505
74	0xbe2c2c94	-0.1681388
75	0x3eadaab8	0.3391931
76	0xbe96057e	-0.29301065
77	0x3e36de4a	0.17858234
78	0x3de221b3	0.11041584
79	0xbda7b23f	-0.081882946
80	0x3d7baf99	0.06144676
81	0x3e789632	0.24276045
82	0x3df5c88d	0.12001143
83	0x3e0657a5	0.13119371
84	0x3c0f5c20	0.008749992
85	0xbcaba74b	-0.020953795
86	0x3dee9632	0.11649741
87	0xbee18b06	-0.4405138
88	0xbdcb3c5b	-0.09923621
89	0x3b69c62f	0.0035671105
90	0xbe16f3d4	-0.1474145
91	0x3c7a828a	0.015289912
92	0x3dbe7f40	0.09301615
93	0x3e0ff1aa	0.14057031
94	0xbe1b896c	-0.15189141
95	0xbde787fe	-0.11305235
96	0x3e2c52c7	0.16828452
97	0x3e650c37	0.22367941
98	0x3df6c76c	0.120497555
99	0xbe632637	-0.22182547
100	0xbe835d5d	-0.25657168
101	0xbebdbdae	-0.37058777
102	0xbe93bebf	-0.28856465
103	0x3e870439	0.2637041
104	0xbe39bf27	-0.18139325
105	0x3d1e0bab	0.038585346
106	0xbe7ee5cb	-0.24892347
107	0x3df56eec	0.11984047
108	0x3e8d8cf0	0.2764659
109	0xbd60ec97	-0.05491313
110	0xbda9bd2c	-0.08288035
111	0x3dea99dd	0.11455128
112	0x3ce5b820	0.0280419
113	0x3d7762f0	0.06039709
114	0xbdee5ea5	-0.11639146
115	0xbcc1b561	-0.023646059
116	0x3e089219	0.13336982
117	0xbeb792a3	-0.35854062
118	0x3d95211a	0.07281704
119	0x3ef5b22d	0.479875
120	0xbed8bd42	-0.42331892
121	0x3d7eb2a5	0.062182087
122	0xbd8b2a81	-0.06795216
123	0xbe238266	-0.15967712
124	0x3e5ab2f2	0.21357325
125	0x3ebbebfb	0.36703476
126	0xbe1195e3	-0.14217333
127	0xbdeadd9b	-0.11468049
128	0xbf27a92b	-0.65492505
129	0xbe0441b3	-0.12915687
130	0xbf21597e	-0.6302718
131	0xbe05274f	-0.13003276
132	0xbde44d8a	-0.11147602
133	0xbd904dd7	-0.07046097
134	0x3d963e82	0.07336141
135	0xbe0d2c85	-0.13786514
136	0xbe13284e	-0.14370844
137	0xbe5a4c0d	-0.21318074
138	0x3d4c07c4	0.049812093
139	0xbe8e16cf	-0.27751777
140	0xbee79b1e	-0.45235533
141	0xbdcd7da2	-0.10033728
142	0xbd0e8513	-0.03479488
143	0x3e4e1c42	0.20127967
144	0xbb33e3f1	-0.0027449096
145	0xbdf96924	-0.12178257
146	0xbd9f2b02	-0.07771875
147	0xbf273a48	-0.65323305
148	0x3e9b623e	0.3034839
149	0x3e5e5b8d	0.21714611
150	0xbd9d4fed	-0.0768126
151	0x3dadf0be	0.084931836
152	0xbe6ad15b	-0.22931425
153	0xbe51d191	-0.204901
154	0x3e4617c6	0.19345006
155	0x3ea9e5e0	0.33183193
156	0xbe425b9c	-0.18980259
157	0x3ecd576d	0.40105763
158	0xbdef42c2	-0.11682655
159	0xbd363125	-0.04448046
160	0xbeb6d39f	-0.3570833
161	0xbe9d788f	-0.3075604
162	0xbeafb4f4	-0.34317744
163	0xbe86080d	-0.26178017
164	0x3ee3526b	0.44398817
165	0xbe0c45a0	-0.13698435
166	0x3bec9d68	0.0072209127
167	0x3ca87722	0.02056462
168	0xbe038505	-0.12843712
169	0xbe6a287f	-0.2286701
170	0xbd2295a0	-0.039693475
171	0x3d1a033b	0.037600737
172	0xbeb53180	-0.35389328
173	0xbd17feb0	-0.037108123
174	0x3d8eec57	0.06978672
175	0x3d283a23	0.04107107
176	0xbe81e0a2	-0.25366694
177	0xbdcf5ade	-0.101247534
178	0xbecb942f	-0.39761493
179	0xbf12f766	-0.5740875
180	0xbe0ca06b	-0.1373307
181	0xbe4f9774	-0.20272619
182	0x3e02037a	0.12696639
183	0xbebdf73f	-0.37102696
184	0x3e0ef445	0.13960369
185	0x3de991dc	0.114047736
186	0x3e733949	0.23752321
187	0x3d706150	0.058686554
188	0xbe2e6257	-0.17029701
189	0x3de60423	0.11231258
190	0xbd87e496	-0.06635396
191	0xbe5925e9	-0.21205868
192	0x3e7bc54a	0.24586979
193	0xbcb1a10c	-0.021683238
194	0xbdd7d0fa	-0.10537906
195	0x3e1fd027	0.15606748
196	0x3e7defa4	0.24798447
197	0xbe205b41	-0.1565981
198	0x3da1bcd4	0.07897344
199	0x3de82c97	0.1133663
200	0xbe5162a2	-0.20447782
201	0xbe937fbd	-0.28808394
202	0xbe3fcff3	-0.1873167
203	0x3d5f9133	0.054581832
204	0x3edd1141	0.43177226
205	0x3e84b576	0.25919694
206	0xbbf1341a	-0.0073609473
207	0xbe747e9f	-0.23876427
208	0x3ec619b5	0.38691488
209	0x3e49eb18	0.19718587
210	0x3e9aad57	0.30210373
211	0x3e3ef761	0.18649055
212	0xbd2c70eb	-0.042099874
213	0xbe8e1f5b	-0.27758297
214	0x3e7f43da	0.24928227
215	0x3e87b886	0.26507968
216	0x3f273f4d	0.65330964
217	0x3e75525f	0.23957203
218	0x3d41da41	0.047327284
219	0x3c57e91d	0.013178137
220	0xbe7b389b	-0.24533312
221	0x3de0d6c2	0.10978462
222	0x3dd9c641	0.10633517
223	0x3e3a443e	0.18190095
224	0x3d565bbd	0.052333582
225	0xbe08aaa1	-0.1334634
226	0x3db9791a	0.090563014
227	0x3e13051a	0.14357415
228	0x3e14a34d	0.1451542
229	0xbe50c562	-0.20387796
230	0xbe187e07	-0.14891826
231	0xbd81a609	-0.06330497
232	0xbd4fad3c	-0.05070232
233	0xbdab4064	-0.08361891
234	0xbe3df601	-0.18550874
235	0x3e1f71be	0.15570733
236	0xbecc5105	-0.39905563
237	0x3d896571	0.067088015
238	0xbdffff29	-0.1249984
239	0xbd81326f	-0.063084476
240	0x3f3124be	0.6919669
241	0x3ed423e2	0.41433626
242	0xbdc1643a	-0.09442945
243	0xbd06530e	-0.03279405
244	0x3ec85bd6	0.39132565
245	0xbe188e86	-0.14898118
246	0x3deb1937	0.11479419
247	0x3ea8afbc	0.32946575
248	0x3e3b903e	0.18316743
249	0x3d345f6e	0.04403632
250	0xbe29d047	-0.16583358
251	0x3eb5fffa	0.35546857
252	0xbeef73d5	-0.4676806
253	0x3f478757	0.7794089
254	0x3db07e69	0.08617861
255	0x3d063912	0.03276927

bias_ih_l0 f4 [48]
0	0x3d19fbeb	0.037593763
1	0xbe74aeb2	-0.23894766
2	0xbe10e0f7	-0.14148317
3	0xbab51df8	-0.0013818135
4	0xbe65b9cd	-0.22434159
5	0x3baafaaa	0.0052178698
6	0x3cbbc166	0.022919368
7	0x3d3b22f6	0.04568764
8	0x3e5d0551	0.2158406
9	0xbdee37a4	-0.11631706
10	0x3da76293	0.081730984
11	0x3d7d56c8	0.06185034
12	0xbc554e48	-0.013019152
13	0xbdacca60	-0.084370375
14	0x3e4adc27	0.19810544
15	0xbebf6efe	-0.37389368
16	0x3ebeb2df	0.37245843
17	0x3e3943b1	0.18092228
18	0x3ed8d5e8	0.42350698
19	0x3e264613	0.16237669
20	0x3ca1cb74	0.019750334
21	0x3eea8c26	0.4581005
22	0x3dd60c0f	0.10451519
23	0x3eae98de	0.34101003
24	0x3eb9505a	0.36194116
25	0x3f5529d1	0.8326693
26	0x3ef66bf6	0.48129243
27	0x3ee1cf49	0.4410346
28	0xbe23f6db	-0.16012137
29	0x3dcaa7cb	0.09895285
30	0x3d117861	0.035515193
31	0x3e21eec2	0.15813735
32	0xbd99d4e8	-0.07511312
33	0xbe897fbb	-0.26855263
34	0x3de3175b	0.11088439
35	0x3e0a48ac	0.13504285
36	0x3d0a4e1a	0.03376589
37	0x3d7d4573	0.06183381
38	0xbe6fba4d	-0.23410912
39	0x3d59eba3	0.053203236
40	0x3d7ce78d	0.06174426
41	0x3e08fc26	0.13377437
42	0x3e5626ff	0.20913313
43	0x3e715472	0.2356737
44	0x3dc6d592	0.09708704
45	0xbea1e396	-0.31618947
46	0x3e2357ca	0.15951458
47	0x3c8cf161	0.017204942

bias_hh_l0 f4 [48]
0	0x3d8d8e82	0.06911947
1	0x3dd4fead	0.10400138
2	0xbd9b54da	-0.075845435
3	0xbdb8c1dc	-0.09021351
4	0xbbcc1a40	-0.006228715
5	0x3e24e495	0.16102822
6	0x3d7534ea	0.059864916
7	0xbe808259	-0.25099447
8	0xbdb5b513	-0.08872428
9	0xbe59c549	-0.21266665
10	0x3d7be53f	0.061497923
11	0xbdf920be	-0.12164448
12	0xbe2650ac	-0.16241711
13	0x3e6eeebc	0.23333257
14	0xbcac83b1	-0.02105889
15	0xbe85952e	-0.26090378
16	0x3dd6024e	0.10449658
17	0xbcc60e8b	-0.024176857
18	0x3eb10639	0.3457506
19	0x3edc66c7	0.43047163
20	0x3ebf310f	0.37342116
21	0x3d1292e5	0.03578462
22	0x3d94ac29	0.072593994
23	0x3ebd9172	0.37025028
24	0x3f155dda	0.5834633
25	0x3f596bc1	0.84930044
26	0x3ee10535	0.43949285
27	0x3f116ebf	0.5680961
28	0xbd13e930	-0.036111057
29	0xbd8fd71b	-0.0702345
30	0x3e5805f3	0.2109602
31	0x3b29e194	0.0025921809
32	0xbd865ac3	-0.0656028
33	0x3e11a476	0.14222893
34	0xbe40efc6	-0.18841466
35	0xbe0aa558	-0.13539636
36	0xbd4f3224	-0.050584927
37	0x3e49cd2e	0.19707176
38	0x3d9f6533	0.07782974
39	0x3df4fb5e	0.11962007
40	0xbe1603c1	-0.1464987
41	0xbe400d8a	-0.18755165
42	0x3e6b599a	0.22983399
43	0x3e4e955c	0.20174164
44	0x3e37ae6b	0.17937629
45	0x3cbf5215	0.02335457
46	0xbd0a0dfc	-0.033704743
47	0x3da7c2c4	0.081914455

in_proj_weight f4 [48, 16]
0	0x3c742a2f	0.0149026355
1	0x3ea7de2d	0.32786694
2	0xbe2b1790	-0.16708207
3	0x3e08f33f	0.13374041
4	0xbd8f36ff	-0.069929115
5	0xbea847d0	-0.3286729
6	0x3e990468	0.29886174
7	0x3e8728d0	0.26398325
8	0xbe60b96e	-0.21945736
9	0x3ce7caf7	0.028295023
10	0x3d0cc703	0.03436948
11	0xbdbf529c	-0.09341928
12	0xbdc96a42	-0.0983472
13	0x3ef116fe	0.47087854
14	0x3e7413e6	0.23835716
15	0xbc9f6ffc	-0.019462578
16	0xbdf625a1	-0.12018896
17	0x390ffdf8	0.00013732153
18	0xbea17ba2	-0.31539637
19	0xbe45523d	-0.19269653
20	0xbe88c346	-0.26711482
21	0xbde6feb2	-0.11279048
22	0xbdec7639	-0.11545987
23	0x3d4864f6	0.04892441
24	0xbe5f31bb	-0.21796314
25	0xbe9443df	-0.28958032
26	0x3d2ca750	0.04215175
27	0xbe83c002	-0.25732428
28	0xbe09d567	-0.13460313
29	0x3e8f4f32	0.2799011
30	0x3da22771	0.07917679
31	0xbe5166d2	-0.20449379
32	0x3ea49627	0.32145807
33	0x3e05bcbd	0.13060279
34	0x3ea73c72	0.32663304
35	0x3ed1de29	0.40989807
36	0xbdb6a5d4	-0.08918348
37	0xbe34ead1	-0.176677
38	0xbe08cc51	-0.1335919
39	0x3e5b8dd1	0.21440817
40	0x3d4f73a0	0.050647378
41	0x3caed50b	0.021341821
42	0x3decc9ab	0.115619026
43	0xbd13558e	-0.035970263
44	0xbd8098f4	-0.062791735
45	0xbeb26f7f	-0.3485069
46	0xbeaa08b7	-0.33209774
47	0x3bf16681	0.0073669557
48	0x3e1f3c4a	0.15550342
49	0x3e84ac45	0.2591268
50	0xbb8b52dd	-0.0042518214
51	0x3ede3e21	0.43406776
52	0x3c4fa902	0.012674572
53	0xbec94dba	-0.39317113
54	0xbe604a04	-0.21903235
55	0xbe4874f4	-0.19575864
56	0xbe99c091	-0.3002973
57	0xbd6845b1	-0.056707088
58	0xbe5871a6	-0.21137103
59	0x3ca42da0	0.020041287
60	0xbdc20ca2	-0.09475066
61	0x3ec7e28c	0.3904003
62	0xbe857472	-0.26065403
63	0x3ee5bd7a	0.44871122
64	0x3d570cee	0.052502565
65	0x3ece8035	0.4033219
66	0xbe18482d	-0.14871283
67	0xbdc4517b	-0.09585854
68	0x3a24bc13	0.0006284129
69	0xbf110bf8	-0.5665889
70	0x3e25bd2f	0.16185449
71	0xbe21974e	-0.15780374
72	0xbe0ae478	-0.13563716
73	0xbdaf3556	-0.08555095
74	0xbf03e4d8	-0.5152106
75	0xbd94a6c4	-0.072583705
76	0x3dd0cf1e	0.101957545
77	0x3edc691b	0.4304894
78	0xbe8e5ffb	-0.27807602
79	0xbdc47fba	-0.095946744
80	0xbe22be2b	-0.15892856
81	0xbeb3c8b3	-0.3511406
82	0xbdd9b942	-0.10631038
83	0x3e4f8a8c	0.20267695
84	0xbe824d14	-0.2544943
85	0x3bcd4cd7	0.0062652635
86	0xbde7fb52	-0.113272324
87	0x3dca390c	0.09874162
88	0xbe12ee87	-0.14348803
89	0xbca9c2ce	-0.020722773
90	0xbe1ff3ba	-0.15620318
91	0x3cbb5fc1	0.022872807
92	0xbe9e2da4	-0.30894196
93	0x3daa7cd5	0.08324591
94	0x3e8ecaef	0.278892
95	0x3e86a868	0.2630036
96	0x3e041648	0.12899125
97	0xbea9889a	-0.3311203
98	0x3dd1e910	0.10249531
99	0x3e60384e	0.21896479
100	0xbe493076	-0.19647393
101	0xbc6a39bb	-0.014295991
102	0xbde58221	-0.11206461
103	0xbe85cbbc	-0.26132
104	0x3e93074b	0.28716502
105	0xbdc3eea9	-0.09567005
106	0x3dc82d82	0.09774305
107	0xbd20404c	-0.03912382
108	0xbd7f791a	-0.06237135
109	0xbdc21100	-0.09475899
110	0x3df161fb	0.117862664
111	0x3ebd957d	0.37028113
112	0xbdcf743a	-0.1012959
113	0x3ead6854	0.3386866
114	0x3deed59b	0.11661836
115	0x3ec080e8	0.37598348
116	0x3e376d04	0.1791268
117	0xbe010783	-0.12600522
118	0x3d85d30b	0.06534394
119	0x3dbad3e7	0.091224484
120	0xbe3e2c45	-0.18571575
121	0xbdf9d07a	-0.12197967
122	0xbf26d143	-0.6516306
123	0xbe9735b3	-0.29533157
124	0x3df2342d	0.11826358
125	0x3df7715c	0.120821685
126	0xbeea082f	-0.4570937
127	0x3e89d9f1	0.2692409
128	0xbca710f3	-0.020393824
129	0x3ec55bc1	0.38546565
130	0xbe8e807f	-0.2783241
131	0x3e82085e	0.2539701
132	0x3d337dae	0.04382103
133	0xbed59329	-0.41713837
134	0xbe002d5a	-0.125173
135	0xbf0705a4	-0.5274298
136	0xbefa4338	-0.4887941
137	0xbe5ac786	-0.21365175
138	0xbec17200	-0.37782288
139	0xbea35132	-0.31897885
140	0x3d43ec93	0.047833037
141	0x3eecc0be	0.462408
142	0xbea24a8a	-0.31697494
143	0x3f1c5c6f	0.6107854
144	0xbe4e9d50	-0.20177197
145	0x3c812ee7	0.015769435
146	0x3d2abf62	0.041686423
147	0x3e701b4a	0.2344791
148	0x3e939d51	0.2883096
149	0xbe28bbe5	-0.16477926
150	0xbdd9ae49	-0.106289454
151	0xbe15ec68	-0.14640963
152	0xbe3acc62	-0.18242028
153	0xbeeda2a6	-0.46413153
154	0x3cde1724	0.027110644
155	0xbee97d0f	-0.45603225
156	0x3dd9df64	0.106383115
157	0x3e0e5a45	0.13901623
158	0xbe98f8a2	-0.29877192
159	0xbcab3809	-0.020900743
160	0xbf129f68	-0.57274485
161	0xbe4ca9af	-0.19986604
162	0xbdcc2289	-0.099675246
163	0xbc9ea109	-0.019363897
164	0x3dbb1374	0.0913457
165	0xbe62ee4a	-0.22161213
166	0x3e89a575	0.26884046
167	0xbe09ea26	-0.13468227
168	0xbe1f08a2	-0.15530637
169	0xbe5ee141	-0.21765615
170	0xbef97e66	-0.48729247
171	0xbe27f08c	-0.16400355
172	0x3ca10a3f	0.019658206
173	0xbddd76f3	-0.108137034
174	0xbd90a5f8	-0.07062906
175	0x3e665d63	0.22496562
176	0x3ea52411	0.3225408
177	0xbda4d9f9	-0.080493875
178	0x3c848483	0.016176468
179	0xbe9628ec	-0.29328096
180	0x3e500a38	0.20316398
181	0xbceca5e4	-0.028887697
182	0xbe8f4c94	-0.27988112
183	0xbe6e59b8	-0.23276412
184	0x3cbde5e6	0.023180913
185	0x3c604f24	0.013690744
186	0x3ebda9ca	0.370436
187	0xbdd5aa78	-0.10432905
188	0xbe6ae2eb	-0.22938125
189	0xbeb22d68	-0.34800267
190	0x3e19a645	0.15004833
191	0x3e101025	0.14068659
192	0xbeb3afb6	-0.35094994
193	0xbe6467ed	-0.2230527
194	0xbf0f6a46	-0.56021535
195	0xbdd6613b	-0.10467764
196	0xbd56fdfd	-0.052488316
197	0xbf1f32de	-0.6218699
198	0xbf0c9613	-0.54916495
199	0xbf1f55a6	-0.62240064
200	0xbf223ecc	-0.6337707
201	0xbe860fb9	-0.2618387
202	0xbeebaa58	-0.460284
203	0xbd82ffd5	-0.06396452
204	0xbe4ae7c7	-0.19814979
205	0x3f10cb16	0.56559885
206	0xbe6d41b4	-0.23169595
207	0x3e76548b	0.24055688
208	0x3e84a172	0.25904423
209	0xbe21b5b4	-0.1579197
210	0x3df2d057	0.11856144
211	0x3e8bcb14	0.27303374
212	0xbe0f4de7	-0.13994561
213	0xbe88279e	-0.26592726
214	0xbd73bfc2	-0.059509046
215	0x3e91b28c	0.28456533
216	0x3e8dbc6c	0.27682817
217	0x3d803f2f	0.06262051
218	0xbee3698a	-0.44416457
219	0xbe1ab8e6	-0.15109596
220	0xbe9b59de	-0.30342
221	0x3e61474a	0.21999851
222	0x3cbcfa1d	0.023068482
223	0xbd6e4d77	-0.058179345
224	0x3e3b1016	0.18267855
225	0x3d86eb4b	0.06587847
226	0xbe99b687	-0.3002207
227	0x3ea3facd	0.32027283
228	0x3d8faff1	0.0701598
229	0x3ea8d5a0	0.32975483
230	0x3ec5f5b2	0.38664013
231	0x3d2e9686	0.04262402
232	0x3ee7905d	0.45227328
233	0x3edba976	0.42902726
234	0x3e9c4a95	0.30525652
235	0x3dc11075	0.09426967
236	0x3d87b59e	0.066264376
237	0xbea97ed4	-0.33104575
238	0x3e82a158	0.2551372
239	0xbe357fa4	-0.17724472
240	0x3ecb8bca	0.39755088
241	0x3f18f156	0.5974325
242	0x3ecffde6	0.40623397
243	0x3dea016f	0.11426055
244	0x3e732afb	0.23746864
245	0x3e994913	0.29938564
246	0x3e8997d1	0.2687364
247	0xbdca97a9	-0.09892208
248	0xbd5fb9d8	-0.054620594
249	0xbe9628b8	-0.2932794
250	0x3f026ee7	0.50950474
251	0x3e5ad9f0	0.21372199
252	0xbe38a5f3	-0.18032055
253	0x3e88c803	0.26715097
254	0x3c639ad4	0.013891894
255	0x3ec0cf2c	0.3765806

in_proj_bias f4 [48]
0	0xbe56bf09	-0.20971312
1	0xbe8f40d5	-0.2797915
2	0x3dd6b35e	0.1048343
3	0xbe872d5c	-0.26401794
4	0xbedfc886	-0.43707675
5	0x3e2c61df	0.1683421
6	0x3dab31d7	0.083591156
7	0xbed358a4	-0.41278565
8	0xbeb8f45a	-0.36123925
9	0xbe7b1cb0	-0.24522662
10	0xbeac17d3	-0.33611926
11	0x3df72e8b	0.12069424
12	0xbec922bc	-0.39284313
13	0xbe4a5fbe	-0.19763085
14	0x3e68b1d6	0.22724089
15	0x3e0fd260	0.14045095
16	0xbe686366	-0.22694167
17	0xbe0de5d9	-0.13857211
18	0xbd2694fd	-0.04066943
19	0x3d52f917	0.05150708
20	0xbe5ceacb	-0.21573941
21	0xbd722c06	-0.059124015
22	0x3e0d65a2	0.13808301
23	0x3e75ce76	0.2400454
24	0x3e73c27c	0.23804659
25	0xbd9a44b8	-0.07532638
26	0xbce9771a	-0.028499175
27	0x3eb4c2fa	0.35305005
28	0x3d9bfcbb	0.07616564
29	0xbdbe7adc	-0.09300777
30	0xbe3ed92b	-0.1863753
31	0x3b8cdc63	0.004298733
32	0x3cba01fd	0.022706026
33	0xbbe54f2d	-0.006997964
34	0x3d554621	0.052068833
35	0xbd789807	-0.06069186
36	0x3cfa7e27	0.030577732
37	0x3c84b8f3	0.016201472
38	0xbb3e7d01	-0.0029066207
39	0x3d24dcd8	0.040249676
40	0x3c9c41fe	0.019074436
41	0x3cb914a2	0.022592846
42	0x3ba54323	0.0050434037
43	0xbcd84e9c	-0.026404671
44	0xbd180abc	-0.037119612
45	0x3cc939a7	0.024563624
46	0x3d238c62	0.0399288
47	0x3cfb35d8	0.030665323

weight f4 [16, 16]
0	0xbea684da	-0.32523233
1	0x3cc45e19	0.02397065
2	0x3eadfa26	0.3397991
3	0x3db3220d	0.08746729
4	0x3ec08c26	0.37606925
5	0x3e74d84a	0.23910633
6	0x3ebaa6dd	0.36455432
7	0x3e361936	0.17783055
8	0xbe98c7d8	-0.2983997
9	0xbb825393	-0.003977248
10	0xbd7a9eaa	-0.06118647
11	0x3e781866	0.24228057
12	0xbb162209	-0.002290847
13	0x3dd93569	0.1060589
14	0xbd9816b6	-0.07426207
15	0xbdf3b211	-0.11899198
16	0xbe2e576e	-0.1702554
17	0x3c98f434	0.018671133
18	0xbd591d24	-0.053006306
19	0x3d6823fa	0.056674935
20	0x3c70d897	0.014700077
21	0xbeb33ca1	-0.35007194
22	0xbc9e24b2	-0.019304607
23	0x3d877557	0.06614178
24	0x3de75aff	0.11296653
25	0x3e1d180b	0.15341203
26	0xbdb34172	-0.08752717
27	0xbe8daa23	-0.27668867
28	0xbe154813	-0.14578275
29	0x3e6e82b1	0.23292042
30	0x3e3d7357	0.1850103
31	0x3e303c81	0.1721058
32	0xbd295bc2	-0.041347273
33	0xbe516e2d	-0.20452185
34	0x3e6e552f	0.23274682
35	0xbe042592	-0.12904957
36	0x3e03d29c	0.1287331
37	0xbdaab8d0	-0.083360314
38	0x3e35d5a1	0.17757274
39	0xbe017ba5	-0.12644823
40	0xbe2846e5	-0.16433294
41	0x3d421b17	0.047389116
42	0x3e4abcb3	0.19798546
43	0x3eb4c95f	0.35309884
44	0xbe43cc98	-0.19121015
45	0x3dd8e003	0.10589602
46	0x3dea5714	0.1144239
47	0x3de6d353	0.11270776
48	0x3e2cfc90	0.1689322
49	0x3b778094	0.0037765848
50	0x3e84b36e	0.25918144
51	0x3e39987b	0.18124573
52	0xbcb8df06	-0.022567283
53	0x3e920213	0.28517208
54	0x3e89a77e	0.268856
55	0x3e590f25	0.21197183
56	0xbe0e4f10	-0.13897347
57	0x3b266a58	0.0025392976
58	0x3d9a7731	0.07542265
59	0x3dbf7211	0.09347928
60	0xba9e4b40	-0.001207687
61	0xbe6df798	-0.23238981
62	0x3e88ebc7	0.26742384
63	0xbe8b48f2	-0.2720409
64	0xbdd5a6f1	-0.10432232
65	0xbe28a95c	-0.16470855
66	0x3d866bc0	0.065635204
67	0x3c710752	0.014711218
68	0x3e267e9c	0.16259235
69	0x3dcd40f6	0.10022156
70	0xbc0b0b34	-0.008486558
71	0x3da61913	0.08110251
72	0xbce11a32	-0.027478311
73	0x3a3e388f	0.00072563527
74	0x3d951c56	0.07280795
75	0x3e2ba5a5	0.16762407
76	0xbe23cd64	-0.15996319
77	0x3e466852	0.19375733
78	0xbeaed4df	-0.34146783
79	0x3d08eef1	0.033430997
80	0x3ddfef97	0.1093437
81	0xbdda0f1b	-0.106474124
82	0xbe9b5c73	-0.3034397
83	0xbe0459ae	-0.12924835
84	0xbccf619c	-0.025315098
85	0x3ade17ad	0.0016944312
86	0x3e199376	0.14997658
87	0x3c0098bc	0.007848915
88	0x3ea29f7f	0.3176231
89	0x3d404865	0.04694404
90	0xbd352679	-0.044226144
91	0x3eb30b15	0.34969392
92	0xbdc637af	-0.096785896
93	0x3e1270f8	0.14300907
94	0x3e28c810	0.16482568
95	0xbe88c87a	-0.2671545
96	0xbd89919f	-0.06717228
97	0x3e87a98f	0.2649655
98	0x3e97eac8	0.2967131
99	0x3dd15b53	0.10222497
100	0xbebe2c84	-0.37143338
101	0x3df81fc4	0.12115434
102	0xbdb87c86	-0.09008126
103	0xbe3096d0	-0.1724503
104	0xbd0ed49f	-0.03487074
105	0x3d9b6c2c	0.075889915
106	0x3e05ff20	0.13085604
107	0x38fedef6	0.000121531935
108	0x3dbda987	0.092608504
109	0xbe3f1d41	-0.18663503
110	0xbcb4b698	-0.022059724
111	0x3c1b3899	0.009473943
112	0x3e593a01	0.21213533
113	0x3e15ff77	0.14648233
114	0x3ef3aa6c	0.4759096
115	0xbb0b4d9a	-0.002125597
116	0xbd976fd7	-0.07394379
117	0xbe945402	-0.28970343
118	0x3d4a9c33	0.04946537
119	0x3d59b81c	0.053154096
120	0xbdc1e485	-0.09467415
121	0xbd1f8b32	-0.038951106
122	0x3e558e98	0.20855176
123	0xbe4569bb	-0.19278614
124	0x3dd3a923	0.10334995
125	0xbcf59256	-0.029977005
126	0x3e48ffc3	0.19628815
127	0x3dcad19c	0.09903261
128	0xbe7e01fe	-0.24805447
129	0x3e5b6d5a	0.21428433
130	0xbd953d04	-0.072870284
131	0xbe695636	-0.22786793
132	0x3eb3aea3	0.35094175
133	0x3e1fd1d5	0.15607388
134	0x3e5199d4	0.20468837
135	0xbd8cbb5e	-0.06871675
136	0xbe5c4564	-0.21510845
137	0x3e5aa50c	0.21352023
138	0xbdd4c515	-0.10389153
139	0x3df6d088	0.12051493
140	0xbe5277e4	-0.20553547
141	0x3e571339	0.21003427
142	0xbeaf55c0	-0.3424511
143	0xbe900785	-0.28130737
144	0x3e58a233	0.21155624
145	0x3e10d743	0.14144616
146	0xbec374a7	-0.38174936
147	0x3d3add9c	0.0456215
148	0x3e193ac3	0.14963822
149	0x3e368285	0.17823227
150	0xbeb3522a	-0.35023624
151	0xbe63b88d	-0.2223837
152	0x3e14ec8c	0.1454336
153	0xbee96a82	-0.45589072
154	0xbe81e0be	-0.25366777
155	0x3e4789bf	0.1948614
156	0x3ed3497e	0.41267008
157	0xbe3aa95d	-0.1822867
158	0xbd90316e	-0.07040678
159	0x3dbcb4eb	0.09214195
160	0x3e1d1e60	0.15343618
161	0xbdfb48a0	-0.122697115
162	0xbe4f90de	-0.20270106
163	0x3e5186da	0.20461598
164	0xbe46877d	-0.19387622
165	0x3e9ab0b2	0.30212933
166	0xbdcfa653	-0.10139146
167	0xbd2b80cd	-0.04187088
168	0x3bcb1cc1	0.006198496
169	0xbcd78c3e	-0.02631199
170	0xbe6111b6	-0.21979412
171	0x3e83fc98	0.2577865
172	0xbd780566	-0.060552023
173	0xbe9bbcc7	-0.30417463
174	0xbce6367b	-0.02810215
175	0x3d83e712	0.064405575
176	0x3e87f577	0.26554462
177	0xbdd4e6dc	-0.103955954
178	0x3ed6877f	0.4190025
179	0xbebf5d2f	-0.3737578
180	0x3df624d7	0.120187454
181	0xbbd2d071	-0.0064335396
182	0xbe6b9229	-0.23004974
183	0xbdf4ee4f	-0.11959516
184	0x3e1c3f19	0.15258445
185	0xbcdd5f64	-0.027023025
186	0x3da2a81d	0.07942221
187	0xbe955e72	-0.2917362
188	0xbe01c994	-0.12674552
189	0x3e5abf5d	0.21362062
190	0x3e463439	0.19355859
191	0x3d83ced7	0.06435936
192	0xbddbc360	-0.10730624
193	0xbe8aa096	-0.27075642
194	0xbda7bc41	-0.081902035
195	0x3deec72c	0.11659083
196	0x3e102456	0.14076361
197	0xbba96343	-0.0051693036
198	0xbdd1f073	-0.1025094
199	0x3e10b90f	0.14133094
200	0xbe0ce78b	-0.13760202
201	0x3de5dfa7	0.11224299
202	0xbe88ff5b	-0.2675732
203	0xbe74dfc7	-0.2391349
204	0xbe54c220	-0.20777178
205	0xbd087648	-0.033315927
206	0x3e4216ab	0.1895396
207	0x3e95f3b4	0.29287493
208	0xbe7dacfb	-0.24773018
209	0x3d6ab90e	0.05730539
210	0xbe726b90	-0.23673844
211	0xbb60e41a	-0.0034315647
212	0x3e3c25ae	0.18373749
213	0xbb464ef5	-0.0030259464
214	0xbe0fa748	-0.14028656
215	0xbdcf69b0	-0.1012758
216	0xbdbf3439	-0.093361326
217	0x3e0d43d4	0.13795406
218	0xbb9bee12	-0.004758605
219	0x3e0dee27	0.13860379
220	0xbbece8ca	-0.007229899
221	0x3d9f9ffe	0.07794188
222	0x3d4f830c	0.050662085
223	0x3e71bf56	0.23608145
224	0xbe312fd7	-0.17303406
225	0xbe50cbb2	-0.20390204
226	0x3e275bed	0.1634366
227	0xbdf5e89c	-0.12007257
228	0xbd0618c3	-0.03273846
229	0xb9082274	-0.00012982805
230	0xbc5832bb	-0.013195689
231	0x3ea23482	0.31680685
232	0x3ea45330	0.32094717
233	0x3d2c38b4	0.042046264
234	0xbe000d1a	-0.12504998
235	0x3db2ea34	0.08736077
236	0xbd93cce8	-0.07216817
237	0xbe4f381a	-0.20236245
238	0x3e23fe40	0.16014957
239	0x3cbde003	0.023178106
240	0x3e376ff6	0.17913803
241	0xbeb1a1e3	-0.34693822
242	0xbe15b246	-0.14618787
243	0xbe80745d	-0.25088778
244	0xbe801276	-0.25014085
245	0xbdf6a6c1	-0.120435245
246	0xbeb36845	-0.3504049
247	0xbe5ef44a	-0.21772876
248	0x3e443679	0.19161405
249	0x3ceeeeeb	0.02916666
250	0x3da4deab	0.08050283
251	0x3dff7530	0.124735236
252	0xbabaea5b	-0.0014260517
253	0xbc89e980	-0.016834974
254	0x3d3910d1	0.045182053
255	0xbe90bd9c	-0.2826966

bias f4 [16]
0	0x3c524b1d	0.012835291
1	0x3c7cddff	0.015433787
2	0x3d1b60d2	0.037934132
3	0x3bea553d	0.0071512745
4	0xbd35d3bc	-0.04439138
5	0x3c801599	0.015635299
6	0xbd1df050	-0.038559258
7	0xbdc3bb5b	-0.095572196
8	0xbce437ea	-0.027858693
9	0xbe42056e	-0.18947384
10	0xbd1ad62f	-0.037801918
11	0x3c08a8ea	0.0083410535
12	0x3d7cfcb9	0.061764453
13	0xbac3eeb4	-0.0014948458
14	0x3d9b4632	0.07581748
15	0x3b8f6329	0.0043758345

weight f4 [16, 16]
0	0x3e897828	0.26849484
1	0xbe8defc9	-0.27722004
2	0x3d421860	0.047386527
3	0xbda93c7c	-0.082634896
4	0x3e8cd81b	0.27508625
5	0xbc9825ca	-0.018572707
6	0x3caa3919	0.02077918
7	0xbdacf1a6	-0.08444528
8	0x3e3e60c6	0.18591604
9	0xbd49ad66	-0.04923763
10	0xbd851a59	-0.06499166
11	0xbe2def84	-0.16985899
12	0xbf17f084	-0.5935137
13	0x3ea7939d	0.32729807
14	0xbe693365	-0.22773512
15	0xbe19b922	-0.15012029
16	0xbdc5348c	-0.09629163
17	0x3ddd35ff	0.108013146
18	0xbe65870a	-0.22414795
19	0xbe360671	-0.17775895
20	0x3e8e4cb9	0.2779291
21	0x3d45f7a6	0.04833188
22	0x3d0e1399	0.03468666
23	0xbd65b88b	-0.056084197
24	0x3ca216b2	0.019786213
25	0xbd95d4cf	-0.07315981
26	0xbd3bf8ba	-0.0458915
27	0xbe016295	-0.12635262
28	0xbe99968d	-0.29997674
29	0x3f047a1b	0.5174882
30	0x3e4cf3de	0.20014903
31	0xbde3cf33	-0.111235045
32	0x3d077540	0.033070803
33	0xbec3d430	-0.38247824
34	0xbdc5bee0	-0.09655547
35	0xbd853bf4	-0.06505576
36	0x3e7dbf77	0.2478007
37	0xbd859fc7	-0.06524616
38	0x3eb4dbae	0.35323852
39	0x3e3ad651	0.18245818
40	0xbc62ba88	-0.013838418
41	0x3eddcace	0.4331879
42	0x3e82e529	0.2556546
43	0x3d798c37	0.060924735
44	0x3e5cf2b2	0.21576956
45	0x3bb6ddb8	0.00558063
46	0xbc20f561	-0.009824128
47	0x3d437cc1	0.047726396
48	0x3e7425bc	0.2384252
49	0x3df99365	0.121863164
50	0xbd811cf7	-0.06304353
51	0x3ee29884	0.44256985
52	0xbdfabb60	-0.1224277
53	0xbf173290	-0.5906153
54	0x3e0e6952	0.13907364
55	0x3ea32f26	0.3187191
56	0x3e819238	0.2530687
57	0x3dd59038	0.10427898
58	0xbd433e66	-0.04766693
59	0x3e390220	0.18067217
60	0x3e340940	0.17581654
61	0xbd675cd1	-0.056485
62	0xbeb3a38a	-0.35085708
63	0x3d2857a8	0.04109922
64	0xbe036b1f	-0.12833832
65	0x3e8aa6d2	0.270804
66	0xbd6006eb	-0.054694097
67	0x3ea81aba	0.3283289
68	0x3cf73fb6	0.030181747
69	0xbd812f61	-0.06307865
70	0xbddc4aad	-0.10756431
71	0xbd78347b	-0.060596924
72	0x3cdecebf	0.027198194
73	0x3ccbb5d8	0.024866983
74	0x3d197139	0.037461493
75	0xbdc3f956	-0.095690414
76	0x3e0927e6	0.13394126
77	0x3e2749f4	0.16336805
78	0xbe505be6	-0.20347556
79	0xbe436bfa	-0.19084159
80	0x3ef415e2	0.47672945
81	0xbebd11dd	-0.3692769
82	0x3e0aa279	0.13538541
83	0x3ec7dc3f	0.39035222
84	0x3e8e2f8d	0.27770653
85	0xbe1f93af	-0.1558368
86	0xbe8c0923	-0.2735072
87	0xbe0f98f0	-0.14023185
88	0x3f0b440b	0.544007
89	0xbe1d5a03	-0.15366368
90	0xbda51219	-0.080600925
91	0xbec09c3b	-0.37619194
92	0xbe9e5368	-0.3092301
93	0x3bd7cb3b	0.0065855063
94	0xbe6cfe16	-0.23143801
95	0x3cc14cf9	0.023596274
96	0x3e714e99	0.23565139
97	0x3e010e74	0.1260317
98	0xbdeda584	-0.11603835
99	0x3e7f43ab	0.24928157
100	0x3e8aa983	0.27082452
101	0xbea21ce9	-0.31662682
102	0xbb108aec	-0.002205546
103	0x3d8319f8	0.064014375
104	0xbe4ee917	-0.20206104
105	0xbcaca7e8	-0.021076158
106	0x3dcc4daf	0.099757545
107	0xbe69271f	-0.2276883
108	0x3e246c26	0.1605688
109	0xbe07f3c2	-0.1327658
110	0xbeba508f	-0.36389586
111	0x3ecde3cb	0.40212855
112	0xbd772eb4	-0.060347274
113	0x3d89db83	0.06731322
114	0xbe9f2905	-0.31085983
115	0xbe60dc75	-0.21959098
116	0x3eb8769f	0.36028
117	0xbe013460	-0.12617636
118	0xbdbb8987	-0.09157091
119	0x3e79a332	0.2437866
120	0xbdd6143c	-0.10453078
121	0x3ecb51c5	0.39710823
122	0x3e01cf11	0.12676646
123	0x3e198db3	0.1499546
124	0xbe192d97	-0.14958797
125	0x3da0cec0	0.078519344
126	0x3d072ce9	0.033001814
127	0xbe2e2376	-0.17005715
128	0x3cbd3e1a	0.023100901
129	0xbedca0fe	-0.43091577
130	0x3eb428e4	0.35187447
131	0x3e9bba9c	0.3041581
132	0x3e76c997	0.24100338
133	0x3c7e9918	0.01553943
134	0xbdd6d000	-0.104888916
135	0x3e4e21f1	0.20130135
136	0x3e46d316	0.1941646
137	0x3d93cc64	0.07216719
138	0xbe5c9130	-0.2153976
139	0xbed83947	-0.422312
140	0x3d991895	0.07475392
141	0xbe2f3f91	-0.17114092
142	0xbdca56f9	-0.0987987
143	0x3e499cb6	0.19688687
144	0x3e180763	0.14846568
145	0xbd0b27d4	-0.03397353
146	0xbd26511f	-0.040604707
147	0x3e3f557c	0.18684953
148	0x3ebf06e3	0.37309942
149	0xbec413b6	-0.38296288
150	0xbd5777a5	-0.052604336
151	0x3e813d0f	0.25241897
152	0xbdc1ad54	-0.09456888
153	0xbda31348	-0.07962662
154	0xbcb2784c	-0.021785878
155	0x3e8f202a	0.27954227
156	0x3e04f2a7	0.1298319
157	0x3dabfc63	0.08397748
158	0xbdcd020e	-0.100101575
159	0xbe673f3b	-0.22582714
160	0x3d17e00f	0.037078913
161	0xbe9503f1	-0.2910457
162	0x3f0d919c	0.5530031
163	0x3f054030	0.5205107
164	0xbeb6fd62	-0.3574019
165	0xbc87edaf	-0.016592829
166	0x3dba3aed	0.090932705
167	0x3ebc94a0	0.36832142
168	0xbe1b6107	-0.15173732
169	0x3e98b608	0.2982638
170	0x3d6af527	0.0573627
171	0xbe811ce7	-0.25217363
172	0xbe71ac3e	-0.23600861
173	0xbe49b8a8	-0.19699347
174	0xbe7bd6ed	-0.24593706
175	0x3d8bc65e	0.06824945
176	0xbe810b8b	-0.2520412
177	0xbdcbc570	-0.099497676
178	0xbd8995d1	-0.06718028
179	0x3f039d01	0.51411444
180	0x3c614b32	0.013750838
181	0x3db01ccd	0.08599243
182	0x3dce1d3f	0.10064172
183	0x3dc8fcf5	0.09813873
184	0x3e476b00	0.19474411
185	0x3d2abb5c	0.041682586
186	0xbd9417a4	-0.072310716
187	0xbe14e212	-0.14539364
188	0xbe819248	-0.25306916
189	0x3d631bbf	0.055446383
190	0x3bb339fe	0.0054695597
191	0x3e7e20ae	0.24817154
192	0xbc93cc98	-0.018041894
193	0xbe8f2804	-0.27960217
194	0xbeb501c2	-0.35352904
195	0xbe9ea9fd	-0.30989066
196	0x3d525752	0.051352806
197	0xbdb6d44d	-0.08927212
198	0x3e1030b6	0.14081082
199	0xbe57cb9c	-0.21073765
200	0x3dec985b	0.11552497
201	0x3f0cf68b	0.55063695
202	0x3e61f2b8	0.22065246
203	0x3ca4508a	0.020057935
204	0xbe830149	-0.25586918
205	0xbd9b2e92	-0.07577242
206	0xbe96fa21	-0.29487708
207	0xbe0e6164	-0.13904339
208	0x3dfad120	0.12246919
209	0xbe146dd0	-0.14495015
210	0xbeb6660f	-0.3562474
211	0xbeb5f007	-0.3553469
212	0x3e7819da	0.24228612
213	0xbe423321	-0.18964817
214	0xbe3e5bad	-0.18589659
215	0x3e84b61c	0.25920188
216	0x3c9851a7	0.018593622
217	0xbd8ddf5d	-0.06927369
218	0x3de7c61b	0.113170825
219	0x3da4a50d	0.080392934
220	0xbe17ae96	-0.14812693
221	0x3ed641c2	0.41847044
222	0x3e26fba6	0.16306934
223	0xbe85a5f7	-0.26103184
224	0x3d8aca4e	0.06776868
225	0xbedfcaa0	-0.43709278
226	0xbebb6666	-0.3660156
227	0xbe7deeab	-0.24798076
228	0xbdaad6bb	-0.08341738
229	0xbe91f566	-0.28507537
230	0xbda4885a	-0.080338195
231	0xbe84c79f	-0.2593355
232	0x3e8ee7cc	0.27911222
233	0x3f066abd	0.5250662
234	0xbd3cb226	-0.046068333
235	0xbdd50b62	-0.10402562
236	0xbeadcbe8	-0.3394463
237	0x3df34ab7	0.11879485
238	0xbd496e4e	-0.04917746
239	0xbda8d133	-0.082430266
240	0xbdabcf94	-0.08389202
241	0x3e77fa63	0.24216609
242	0x3e02922b	0.12751071
243	0x3e908f8b	0.28234515
244	0xbb66f43f	-0.0035240797
245	0xbe0983c4	-0.13429171
246	0xbe7b21cf	-0.24524616
247	0x3e38af30	0.18035579
248	0xbd4fa2bc	-0.050692305
249	0xbe5d1b8a	-0.21592537
250	0x3e196e43	0.14983468
251	0xbe844618	-0.25834727
252	0x3dad9a5b	0.084767066
253	0x3dd438ce	0.10362397
254	0xbf04284f	-0.51624006
255	0xbdbc9e8c	-0.09209928

bias f4 [16]
0	0xbe2e003d	-0.16992278
1	0xbeaf3571	-0.3422046
2	0xbe474fc5	-0.19464023
3	0xbe451d91	-0.1924956
4	0x3e329720	0.17440462
5	0xbe2e6706	-0.17031488
6	0x3e3d5052	0.18487671
7	0x3da820a1	0.082093485
8	0xbe847370	-0.25869322
9	0xbe7c368f	-0.24630187
10	0x3cebcae1	0.028783264
11	0xbdaf2257	-0.08551472
12	0x3d9835a7	0.07432108
13	0xbe7275b9	-0.2367772
14	0xbeabdb7a	-0.33565885
15	0xbd7f313b	-0.06230281
